app/src/main/assets/models/prediction/model.tflite (tflite, 53496 bytes, 9 tensors)

arith.constant f4 [256]
-0.07089688 -0.059401043 -0.03248535 -0.016102463 0.009449021 0.010717074 -0.022516564 -0.031911194
-0.073228195 -0.0027757436 -0.017324144 -0.007046717 -0.017063972 -0.056011837 -0.05579314 0.0025326256
-0.042299107 0.00651541 0.039668612 0.005735524 0.017855488 -0.008307193 0.008576302 -0.016647542
-0.046953086 -0.0072417194 -0.033062052 -0.038528755 0.018383684 -0.013116776 -0.022902004 0.021726158
-0.012909132 -0.008797892 0.021107111 -0.009380333 0.010158372 -0.02453978 0.017576903 -0.0297812
0.024360206 -0.05451507 -0.015267222 -0.010269189 -0.073859446 -0.008709127 0.015480045 0.017667938
0.010183295 -0.06570769 0.002624621 0.0010811734 0.03864211 0.041259833 -0.03290752 -0.022951016
-0.039370533 -0.069936804 -0.011088436 0.017921636 0.005374098 -0.043465797 -0.028845733 -0.009023625
-0.029547518 -0.0023209525 -0.053572528 -0.023863006 -0.019729985 -0.009802084 0.0024328483 0.04376934
0.005940171 -0.02887681 0.015054376 -0.021710793 0.0043788957 -0.016843168 -0.0007182872 0.046296366
0.009628352 -0.05388966 -0.004134785 -0.0012258933 -0.00017842042 -0.004331635 -0.0716217 0.020051997
-0.027211588 0.008904307 -0.014545749 -0.023300292 -0.023643404 -0.105908066 0.0049344115 0.01661533
-0.0013712558 0.033083156 0.024783637 -0.018081667 0.022996828 -0.037881352 -0.015898649 -0.0374768
0.0010326297 -0.0027709277 -0.010483503 0.011837346 -0.02426159 -0.01299432 -0.026594797 0.015382599
0.034977347 0.0062194685 0.007803577 -0.05484063 -0.012831338 -0.03615149 -0.018650884 0.009753364
-0.017482672 -0.032866374 0.01360961 0.0024242501 -0.0076362477 0.012990352 -0.026972901 0.024851374
-0.052154087 -0.026189387 -0.026500145 0.0066232355 -0.009482825 0.0006719568 -0.02861093 -0.03458893
-0.020638231 -0.038126234 -0.021708326 -0.026250169 -0.01946568 0.0009166125 -0.05176902 0.00089745584
-0.043451995 -0.036809452 -0.06317875 -0.0272871 -0.014401002 -0.03855721 -0.0073582954 -0.0137582235
0.012068903 -0.100801766 -0.007973872 -0.025723394 -0.02333309 -0.03386439 -0.013249663 -0.023568211
-0.039152868 -0.009105048 0.028791433 0.028380116 0.029581556 -0.06314346 -0.02727382 -0.0067224363
-0.015351008 -0.032166764 -0.051238608 0.0038283207 0.004516637 -0.029558973 -0.0014696182 -0.023444366
-0.042975888 -0.014931777 -0.05741862 -0.030775627 -0.06474165 -0.0005900267 -0.05527751 -0.057228412
-0.008444889 -0.011196887 0.00044375923 -0.030163577 -0.051231746 -0.027884042 -0.032969315 -0.007886987
0.03185384 -0.019591102 0.013173068 -0.004115761 -0.06345171 -0.027686937 -0.020526795 -0.03244103
0.0039060686 -0.06710992 0.0043374426 -0.0028719124 -0.01236053 -0.017998263 -0.031586107 -0.0006817857
-0.009681468 0.000298492 -0.026649613 -0.046609703 -0.028944023 -0.046895627 0.002712404 0.0071763583
-0.007775005 -0.017439505 0.017460845 0.07231394 -0.008015003 -0.020450667 -0.024145855 -0.0015443345
-0.03886336 -0.053420916 -0.020083295 -0.0059569734 0.024740666 -0.06543295 -0.033504065 0.009970657
0.015369193 -0.025034819 -0.014367699 -0.041685645 -0.023444025 0.012271695 0.00054877193 0.016879836
0.03651475 -0.01806715 -0.022746548 -0.058982566 -0.010179883 0.0033652803 -0.04998275 -0.007491601
0.016861862 0.019385453 -0.02615107 -0.043993097 -0.025637528 0.008722983 0.006058233 -0.018904824
00000000: 6232 91bd 824e 73bd 5c0f 05bd 50e9 83bc
00000010: 11d0 1a3c ab96 2f3c a874 b8bc 50b5 02bd
00000020: aaf8 95bd 40e9 35bb 5deb 8dbc 26e8 e6bb
00000030: bec9 8bbc ab6c 65bd 5987 64bd 68fa 253b
00000040: d441 2dbd 387f d53b 8e7b 223d 10f1 bb3b
00000050: ac45 923c e51a 08bc 9e83 0c3c 6d60 88bc
00000060: e151 40bd f24b edbb 136c 07bd 54d0 1dbd
00000070: 6199 963c bfe7 56bc fc9c bbbc 0efb b13c
00000080: d380 53bc 0925 10bc d2e8 ac3c f8af 19bc
00000090: 4d6f 263c a607 c9bc 70fd 8f3c b4f7 f3bc
000000a0: 0e8f c73c 324b 5fbd 5f23 7abc 1a40 28bc
000000b0: 9f43 97bd bab0 0ebc 04a0 7d3c 5abc 903c
000000c0: d6d7 263c c191 86bd d501 2c3b 29b6 8d3a
000000d0: 3047 1e3d 1200 293d 09ca 06bd c503 bcbc
000000e0: ff42 21bd 073b 8fbd 45ac 35bc 65d0 923c
000000f0: 3419 b03b 3109 32bd e34d ecbc d4d7 13bc
00000100: a30d f2bc 1f1b 18bb de6e 5bbd 5a7c c3bc
00000110: c7a0 a1bc ec98 20bc 6c70 1f3b 7b47 333d
00000120: c4a5 c23b 0f8f ecbc a1a6 763c d5da b1bc
00000130: d77c 8f3b affa 89bc 704b 3cba 42a1 3d3d
00000140: 3cc0 1d3c 67bb 5cbd 177d 87bb 27ae a0ba
00000150: 5e16 3bb9 63f0 8dbb 66ae 92bd 1644 a43c
00000160: d6ea debc 5fe3 113c 4b51 6ebc 41e0 bebc
00000170: d0af c1bc 54e6 d8bd d8b0 a13b df1c 883c
00000180: b6bb b3ba 3482 073d 0e07 cb3c 0120 94bc
00000190: d863 bc3c 7a29 1bbd e23d 82bc 4681 19bd
000001a0: 4e59 873a 7498 35bb 00c3 2bbc 6df1 413c
000001b0: 3ec0 c6bc 21e6 54bc 55dd d9bc 4c07 7c3c
000001c0: 6844 0f3d afcc cb3b 26b5 ff3b 92a0 60bd
000001d0: 883a 52bc 9613 14bd bdc9 98bc 93cc 1f3c
000001e0: d237 8fbc e49e 06bd d7fa 5e3c 2be0 1e3b
000001f0: 7d39 fabb 7cd5 543c 46f6 dcbc 1c95 cb3c
00000200: 869f 55bd 208b d6bc d516 d9bc ba07 d93b
00000210: da5d 1bbc 4226 303a 7861 eabc 1fad 0dbd
00000220: 8211 a9bc 412a 1cbd a9d5 b1bc 980a d7bc
00000230: 7d76 9fbc d348 703a c00b 54bd 3e43 6b3a
00000240: b8fa 31bd 82c5 16bd dc63 81bd 3289 dfbc
00000250: 2ef2 6bbc 2aee 1dbd db1d f1bb 2c6a 61bc
00000260: a6bc 453c 2871 cebd d8a4 02bc deb9 d2bc
00000270: 0925 bfbc 63b5 0abd 1d15 59bc 1f12 c1bc
00000280: c25e 20bd 572d 15bc 03dc eb3c 6b7d e83c
00000290: 0555 f23c 5c51 81bd 596d dfbc e247 dcbb
000002a0: cb82 7bbc 4cc1 03bd 93df 51bd 90e4 7a3b
000002b0: 4c00 943b a925 f2bc 34a0 c0ba 660e c0bc
000002c0: 7c07 30bd 69a4 74bc c92f 6bbd 2b1d fcbc
000002d0: 4597 84bd 06ac 1aba ac6a 62bd 5768 6abd
000002e0: 6f5c 0abc 2673 37bc 5ba8 e839 9b19 f7bc
000002f0: 61d8 51bd 136d e4bc d50a 07bd 6c38 01bc
00000300: 2c79 023d 857d a0bc dad3 573c 81dd 86bb
00000310: f8f2 81bd b7cf e2bc cf27 a8bc e3e0 04bd
00000320: f5fc 7f3b ed70 89bd 1b21 8e3b b236 3cbb
00000330: d283 4abc 1871 93bc 6f60 01bd ddb9 32ba
00000340: 059f 1ebc eb7e 9c39 4a50 dabc d1e9 3ebd
00000350: 041c edbc a115 40bd 96c2 313b a827 eb3b
00000360: 78c5 febb 4bdd 8ebc 0c0a 8f3c 5519 943d
00000370: 5c51 03bc 2888 a7bc 87cd c5bc 446b caba
00000380: 302f 1fbd e4cf 5abd b985 a4bc b732 c3bb
00000390: f0ac ca3c b601 86bd 8f3b 09bd f75b 233c
000003a0: 11cf 7b3c d215 cdbc 7f66 6bbc 91be 2abd
000003b0: af0d c0bc 380f 493c 76db 0f3a 9547 8a3c
000003c0: 7e90 153d 8f01 94bc f856 babc b497 71bd
000003d0: 86c9 26bc 098c 5c3b b6ba 4cbd 1b7c f5bb
000003e0: e321 8a3c 3ece 9e3c c53a d6bc 1b32 34bd
000003f0: cb05 d2bc d8ea 0e3c 2484 c63b 4ade 9abc

arith.constant1 f4 [32]
0.015917478 -0.016940305 -0.006431379 0.010228467 0.01010271 -0.020241566 -0.008570023 -0.010927908
-0.016772905 0.0032967357 -0.019518696 0.007161339 -0.030835902 -0.023266036 0.014318337 0.0076377797
0.019755242 -0.011005225 0.009032097 0.0071696476 -0.006793059 0.0026546414 -0.034748837 0.0036912635
0.0017096376 0.018441634 0.0071132584 0.012339777 0.0011537985 0.015395072 -0.019582199 -0.009592466
00000000: 5f65 823c 65c6 8abc 51be d2bb 4d95 273c
00000010: d685 253c a4d1 a5bc 4869 0cbc f80a 33bc
00000020: 5567 89bc 0c0e 583b ace5 9fbc aaa9 ea3b
00000030: 939b fcbc 6a98 bebc 7597 6a3c 5746 fa3b
00000040: bfd5 a13c 424f 34bc 5cfb 133c 5def ea3b
00000050: 4f98 debb 7ef9 2d3b cc54 0ebd 20e9 713b
00000060: eb15 e03a e912 973c 5616 e93b c72c 4a3c
00000070: 0e3b 973a 9d3b 7c3c d96a a0bc b829 1dbc

arith.constant3 f4 [1, 32]
0.2946929 -0.1796517 -0.050310794 0.078787014 0.38828528 -0.12991482 0.49752107 0.38075018
-0.029771289 0.20659976 -0.03769815 0.36697555 -0.36615852 -0.41571978 0.07180685 -0.2141973
0.37452185 -0.019666787 0.4120775 0.019010827 -0.008772748 0.097579755 -0.30129611 0.36959344
0.012384238 0.39401114 0.12277274 0.4120293 0.22125742 0.15087707 -0.2076609 -0.20104499
00000000: fde1 963e 9ef6 37be b112 4ebd 165b a13d
00000010: 54cd c63e 6408 05be 15bb fe3e b0f1 c23e
00000020: ebe2 f3bc e38e 533e 6069 1abd 38e4 bb3e
00000030: 2179 bbbe 39d9 d4be 780f 933d 8956 5bbe
00000040: 54c1 bf3e 3e1c a1bc d2fb d23e 98bc 9b3c
00000050: 92bb 0fbc e5d7 c73d 7c43 9abe 5a3b bd3e
00000060: 42e7 4a3c d4bb c93e 4670 fb3d 81f5 d23e
00000070: 4e91 623e 857f 1a3e 0fa5 54be bdde 4dbe

arith.constant4 f4 [128]
-0.21254598 -0.94135606 0.30977893 0.9311888 -1.7800453 -0.70392156 0.9567816 2.0885723
0.23604213 -0.18468511 0.3443288 0.73359376 0.84580046 -0.9140261 -0.48415953 -0.18423869
0.8105617 1.0173103 0.3507338 -1.9037087 0.15113834 0.2889367 -0.0023083915 1.1350801
-0.029494356 -0.38648814 -0.43974534 -0.043868363 1.3036815 -0.5624566 0.606202 0.999306
0.14086 1.3034754 0.17081027 0.35055432 1.2003336 1.2451179 -0.70255166 -1.0234326
0.6463796 -0.1981469 -0.10546623 -0.22377254 0.18889226 0.2633412 0.6378178 1.4342183
-0.94817275 -0.18545257 -0.0426626 -0.027825536 -0.26053798 -0.06393562 -0.59940404 -0.0567596
0.34019783 -0.34190804 -1.0404915 -1.1855016 -1.5233619 0.59991276 -0.058645587 0.7690486
0.52253544 0.5954366 1.6092517 1.317787 0.7462522 1.1775 0.63598764 -0.27993152
0.9251623 -0.6353558 0.94504005 0.73041064 1.5009066 0.60853004 0.07128733 -1.0179894
-0.20577067 0.8223314 -0.4680956 -0.614588 -0.14021417 -0.44410002 0.9260302 1.1809361
0.54781944 -1.484974 0.39895582 -1.0436039 -0.23284808 1.9880998 0.9745017 -2.1057804
0.04649385 -0.8584166 0.244264 -1.2823814 1.0926338 -0.7967934 -0.89202636 -0.9864156
-1.5151694 -0.3449207 0.91588736 -0.15079637 -0.9801468 1.0278963 0.84600234 -0.90665734
0.49981546 0.9517224 0.36571074 -0.28605735 -0.42796808 -0.44944212 1.3812436 0.554836
-1.4454982 -0.76359254 1.5697814 -1.2578747 2.034181 -0.5432251 1.5505663 1.9778863
00000000: a7a5 59be b6fc 70bf 589b 9e3e 6462 6e3f
00000010: 86d8 e3bf 3434 34bf a4ef 743f 2bab 0540
00000020: 07b5 713e 181e 3dbe dd4b b03e cdcc 3b3f
00000030: 6186 583f 9dfd 69bf c2e3 f7be 11a9 3cbe
00000040: f980 4f3f 3937 823f 6193 b33e baac f3bf
00000050: 02c4 1a3e 83ef 933e 6248 17bb 4e4a 913f
00000060: 269e f1bc c6e1 c5be 4d26 e1be 50af 33bd
00000070: 09df a63f 28fd 0fbf 0e30 1b3f 85d2 7f3f
00000080: 9b3d 103e 48d8 a63f e3e8 2e3e db7b b33e
00000090: 88a4 993f 0660 9f3f 6dda 33bf d7ff 82bf
000000a0: 2279 253f 05e7 4abe aefe d7bd a124 65be
000000b0: f96c 413e a8d4 863e 0748 233f 7794 b73f
000000c0: 73bb 72bf 47e7 3dbe fabe 2ebd 61f2 e3bc
000000d0: 3c65 85be aef0 82bd 8b72 19bf c17c 68bd
000000e0: 692e ae3e 920e afbe d32e 85bf 84be 97bf
000000f0: 86fd c2bf e293 193f 5b36 70bd 5ee0 443f
00000100: e2c4 053f 886e 183f f6fb cd3f 3fad a83f
00000110: 620a 3f3f 52b8 963f 16d0 223f 2f53 8fbe
00000120: 70d7 6c3f ada6 22bf 25ee 713f 31fc 3a3f
00000130: b51d c03f a0c8 1b3f 17ff 913d 7a4d 82bf
00000140: 8cb5 52be 5084 523f 3aaa efbe a455 1dbf
00000150: 4e94 0fbe 1461 e3be 5110 6d3f ea28 973f
00000160: e53d 0c3f a113 bebf f043 cc3e d094 85bf
00000170: ba6f 6ebe 0e7a fe3f f278 793f 1bc5 06c0
00000180: 5670 3e3d 31c1 5bbf 5820 7a3e 1325 a4bf
00000190: 6ddb 8b3f a7fa 4bbf d75b 64bf bc85 7cbf
000001a0: 12f1 c1bf 7299 b0be 9877 6a3f 5d6a 1abe
000001b0: e7ea 7abf 1b92 833f 9c93 583f b21a 68bf
000001c0: d0e7 ff3e 14a4 733f 703e bb3e 1c76 92be
000001d0: a21e dbbe 471d e6be 97cc b03f bb09 0e3f
000001e0: 1606 b9bf cd7a 43bf 99ee c83f 0a02 a1bf
000001f0: 0630 0240 cd10 0bbf f578 c63f 612b fd3f

arith.constant5 f4 [64]
0.96213007 -0.06915075 0.3332123 -1.3374943 -0.8587688 0.50984687 -1.376723 2.2900026
-0.058013126 -0.3508922 1.1946223 -0.11563843 0.82751113 1.3389182 -2.1894608 0.7527796
-0.7570002 0.5641211 0.39763442 0.5220541 0.515926 0.28317788 0.7070515 0.9824762
-0.8498044 0.49398854 0.103810154 -1.0174096 -1.407876 0.8787969 -1.0852597 3.059839
-1.5186155 -1.2651756 1.7987492 -0.52051413 2.2299392 0.5166835 0.26873448 1.0397884
-1.3795629 1.8768305 2.7425358 -0.90423006 0.1358112 -0.90345454 1.9189377 1.1563783
-0.13689859 1.1227261 1.2382699 -0.063503444 -0.28712353 0.6783867 0.41615373 -0.5583996
-1.7726442 1.3858315 1.2139884 1.0209566 0.379981 0.509571 1.2962842 0.038392507
00000000: 284e 763f e99e 8dbd cd9a aa3e 0333 abbf
00000010: 46d8 5bbf 5385 023f 7638 b0bf 678f 1240
00000020: 2c9f 6dbd 24a8 b3be 62e9 983f d7d3 ecbd
00000030: c5d7 533f ac61 ab3f 2020 0cc0 2ab6 403f
00000040: c4ca 41bf 3e6a 103f bd96 cb3e 56a5 053f
00000050: ba13 043f b1fc 903e 5401 353f 8f83 7b3f
00000060: c88c 59bf 11ec fc3e 6b9a d43d 7a3a 82bf
00000070: 4835 b4bf d5f8 603f cae9 8abf 67d4 4340
00000080: fe61 c2bf 46f1 a1bf 6a3d e63f 6a40 05bf
00000090: 53b7 0e40 5f45 043f 9197 893e c917 853f
000000a0: 8495 b0bf fb3b f03f b585 2f40 9f7b 67bf
000000b0: 1712 0b3e cc48 67bf c09f f53f 3404 943f
000000c0: 252f 0cbe 7db5 8f3f a17f 9e3f 180e 82bd
000000d0: db01 93be c0aa 2d3f 1a12 d53e 47f3 0ebf
000000e0: 01e6 e2bf ed62 b13f f963 9b3f b5ae 823f
000000f0: df8c c23e 3f73 023f a4ec a53f 7641 1d3d

tfl.pseudo_qconst i1 [64, 128] scale=0.0024177595 zero_point=0
0.067697264 -0.024177596 0.13297677 0.0072532785 0.087039344 0.026595354 -0.16440764 -0.014506557
-0.026595354 -0.1257235 0.12814125 0.043519672 0.0072532785 0.021759836 -0.18616748 -0.12814125
-0.067697264 0.014506557 0.043519672 -0.036266394 0.20550956 0.0024177595 0.048355192 0.09429262
-0.1257235 0.05319071 -0.087039344 -0.12814125 -0.021759836 0.12330574 -0.004835519 0.13781229
0.05560847 -0.12088797 0.0072532785 -0.016924316 0.108799174 -0.12330574 0.16198988 -0.13297677
-0.1136347 0.026595354 -0.067697264 0.17649645 0.067697264 -0.16440764 0.09429262 0.06286175
-0.16198988 0.077368304 0.118470214 -0.014506557 0.04110191 0.0894571 -0.065279506 0.021759836
-0.060443986 -0.16440764 0.09912814 -0.058026228 -0.116052456 -0.21518059 0.038684152 -0.019342076
-0.1668254 -0.10638142 0.084621586 -0.1015459 -0.065279506 0.038684152 -0.116052456 0.077368304
-0.048355192 -0.12814125 0.13297677 0.07978606 -0.05560847 -0.09187486 -0.031430874 0.021759836
0.12814125 0.12814125 0.016924316 -0.096710384 -0.13297677 0.12330574 0.065279506 -0.14748333
0.043519672 -0.13539453 0.016924316 0.191003 -0.10638142 0.014506557 0.10396366 0.11121694
-0.012088798 0.09912814 -0.118470214 0.012088798 -0.09912814 0.12330574 0.12330574 -0.009671038
-0.13297677 0.077368304 0.058026228 -0.15715437 -0.084621586 0.067697264 -0.116052456 -0.009671038
0.15715437 -0.22968715 -0.16198988 -0.05560847 0.087039344 0.012088798 -0.096710384 -0.11121694
-0.16440764 -0.012088798 0.13781229 -0.04593743 0.0072532785 0.019342076 0.074950546 -0.029013114
0.036266394 0.036266394 0.12088797 -0.13055901 -0.14990109 0.087039344 -0.11121694 0.108799174
-0.06286175 -0.11121694 -0.1136347 0.11121694 0.0 0.10396366 -0.17407869 -0.09429262
-0.043519672 0.036266394 -0.09429262 -0.10638142 0.084621586 -0.07253279 0.038684152 -0.20067404
-0.05319071 0.13539453 -0.0894571 -0.15231885 0.029013114 0.021759836 -0.05319071 -0.10638142
0.060443986 -0.1789142 -0.07011502 0.05560847 -0.05319071 -0.043519672 -0.016924316 -0.065279506
0.09429262 -0.05319071 -0.058026228 0.0 -0.060443986 -0.1136347 -0.084621586 0.09187486
0.087039344 0.096710384 0.024177596 0.05319071 -0.038684152 0.096710384 -0.04593743 -0.0024177595
-0.06286175 -0.1015459 -0.16198988 -0.031430874 0.13055901 0.18616748 -0.024177596 -0.067697264
-0.05319071 -0.17407869 -0.0024177595 0.019342076 0.09429262 0.09429262 -0.096710384 0.043519672
-0.033848632 0.077368304 0.1789142 -0.060443986 0.036266394 -0.05319071 0.009671038 -0.036266394
-0.077368304 -0.024177596 0.15473661 0.09912814 0.024177596 0.07978606 0.0 0.0072532785
0.0024177595 0.12330574 0.18133196 -0.043519672 -0.04593743 0.067697264 0.15715437 0.108799174
0.074950546 0.0894571 -0.16198988 0.04110191 0.012088798 -0.065279506 -0.1015459 -0.118470214
-0.11121694 0.024177596 -0.116052456 -0.05319071 0.07011502 0.1136347 0.09429262 -0.019342076
-0.07253279 0.16924317 0.096710384 0.13539453 -0.05560847 -0.033848632 0.096710384 0.07011502
-0.12088797 -0.12330574 -0.024177596 -0.067697264 0.10638142 0.004835519 0.0894571 0.11121694
00000000: 1cf6 3703 240b bcfa f5cc 3512 0309 b3cb
00000010: e406 12f1 5501 1427 cc16 dccb f733 fe39
00000020: 17ce 03f9 2dcd 43c9 d10b e449 1cbc 271a
00000030: bd20 31fa 1125 e509 e7bc 29e8 d0a7 10f8
00000040: bbd4 23d6 e510 d020 eccb 3721 e9da f309
00000050: 3535 07d8 c933 1bc3 12c8 074f d406 2b2e
00000060: fb29 cf05 d733 33fc c920 18bf dd1c d0fc
00000070: 41a1 bde9 2405 d8d2 bcfb 39ed 0308 1ff4
00000080: 0f0f 32ca c224 d22d e6d2 d12e 002b b8d9
00000090: ee0f d9d4 23e2 10ad ea38 dbc1 0c09 ead4
000000a0: 19b6 e317 eaee f9e5 27ea e800 e7d1 dd26
000000b0: 2428 0a16 f028 edff e6d6 bdf3 364d f6e4
000000c0: eab8 ff08 2727 d812 f220 4ae7 0fea 04f1
000000d0: e0f6 4029 0a21 0003 0133 4bee ed1c 412d
000000e0: 1f25 bd11 05e5 d6cf d20a d0ea 1d2f 27f8
000000f0: e246 2838 e9f2 281d cecd f6e4 2c02 252e

tfl.pseudo_qconst1 i1 [128, 256] scale=0.01984764 zero_point=0
0.35725754 -1.3694872 -0.41680047 -0.059542924 -0.51603866 0.5557339 0.27786696 -0.65497214
-0.91299146 0.03969528 0.51603866 0.85344857 -0.4366481 -0.5755816 0.65497214 -0.2381717
-0.2381717 -0.4366481 0.0 1.0122297 0.31756225 0.07939056 0.35725754 -0.03969528
-0.89314383 -0.67481977 -0.41680047 0.01984764 0.29771462 -0.67481977 0.37710518 1.0717726
-0.7343627 -0.25801933 0.27786696 -0.35725754 0.13893348 0.5358863 0.49619102 -0.4763434
-0.67481977 -0.9328391 -0.03969528 -0.25801933 0.13893348 -0.17862877 -1.0122297 -0.059542924
0.059542924 0.49619102 0.31756225 -0.45649573 0.0992382 0.35725754 0.07939056 -0.13893348
0.27786696 -0.4763434 0.25801933 -0.59542924 0.3969528 0.0 -0.059542924 0.15878113
0.7939056 0.17862877 -0.5358863 1.3099443 -0.49619102 -0.35725754 0.49619102 -0.27786696
-0.21832405 -0.11908585 -0.17862877 0.35725754 -0.2381717 -0.49619102 -0.35725754 0.29771462
-0.13893348 0.15878113 1.1114678 0.29771462 0.49619102 0.29771462 0.3969528 0.35725754
-0.15878113 0.11908585 0.8732962 -0.774058 0.29771462 0.59542924 0.4366481 0.45649573
0.5358863 0.774058 -0.51603866 0.59542924 -0.85344857 0.25801933 1.3694872 -0.7145151
-0.59542924 0.41680047 0.2381717 -0.2381717 0.0 -0.31756225 0.85344857 0.0
0.41680047 0.59542924 -0.5358863 0.37710518 0.67481977 1.0916202 -0.27786696 0.01984764
0.59542924 -0.35725754 0.4366481 -0.37710518 0.4366481 0.25801933 -0.49619102 -0.51603866
0.1984764 0.29771462 -0.5755816 0.49619102 -0.07939056 0.6152769 -1.0717726 0.81375325
0.75421035 -0.35725754 -0.37710518 -0.21832405 0.2381717 -1.0122297 -0.37710518 0.4763434
-0.21832405 -0.17862877 -0.6351245 -0.21832405 -0.0992382 -0.13893348 -0.5358863 -0.5557339
-0.29771462 -1.3297919 -0.67481977 -0.11908585 -0.3969528 -0.059542924 -0.35725754 0.17862877
0.6351245 0.5358863 -0.07939056 -0.41680047 -0.25801933 -0.5358863 0.59542924 0.0992382
0.6351245 0.31756225 -0.8732962 -0.01984764 -0.6351245 0.0 -0.0992382 -0.1984764
1.8458306 -0.059542924 -0.6946674 0.13893348 0.13893348 -0.11908585 -0.11908585 0.4763434
0.51603866 0.67481977 0.27786696 0.1984764 0.07939056 -1.3893348 0.45649573 -0.13893348
0.41680047 -0.11908585 -1.1710109 0.13893348 -0.4366481 0.1984764 0.65497214 0.7145151
-0.25801933 0.15878113 0.13893348 0.0992382 0.0 -0.17862877 0.81375325 -0.3969528
-0.2381717 -0.25801933 0.81375325 -0.29771462 -1.0717726 0.059542924 -0.03969528 -0.2381717
0.49619102 0.21832405 0.6152769 -0.33740988 -0.13893348 0.0 -0.25801933 0.29771462
-0.35725754 0.83360094 0.33740988 0.25801933 0.1984764 -1.3496395 -0.49619102 -0.059542924
-0.13893348 0.03969528 -0.35725754 0.6946674 -0.13893348 -0.31756225 -0.01984764 0.5755816
0.29771462 -0.7145151 -0.2381717 0.31756225 0.1984764 0.41680047 0.059542924 -0.51603866
0.6152769 -0.33740988 -0.27786696 -0.33740988 0.4763434 -0.37710518 -0.75421035 0.5755816
00000000: 12bb ebfd e61c 0edf d202 1a2b eae3 21f4
00000010: f4ea 0033 1004 12fe d3de eb01 0fde 1336
00000020: dbf3 0eee 071b 19e8 ded1 fef3 07f7 cdfd
00000030: 0319 10e9 0512 04f9 0ee8 0de2 1400 fd08
00000040: 2809 e542 e7ee 19f2 f5fa f712 f4e7 ee0f
00000050: f908 380f 190f 1412 f806 2cd9 0f1e 1617
00000060: 1b27 e61e d50d 45dc e215 0cf4 00f0 2b00
00000070: 151e e513 2237 f201 1eee 16ed 160d e7e6
00000080: 0a0f e319 fc1f ca29 26ee edf5 0ccd ed18
00000090: f5f7 e0f5 fbf9 e5e4 f1bd defa ecfd ee09
000000a0: 201b fceb f3e5 1e05 2010 d4ff e000 fbf6
000000b0: 5dfd dd07 07fa fa18 1a22 0e0a 04ba 17f9
000000c0: 15fa c507 ea0a 2124 f308 0705 00f7 29ec
000000d0: f4f3 29f1 ca03 fef4 190b 1fef f900 f30f
000000e0: ee2a 110d 0abc e7fd f902 ee23 f9f0 ff1d
000000f0: 0fdc f410 0a15 03e6 1fef f2ef 18ed da1d

tfl.pseudo_qconst2 i1 [32, 64] scale=0.002583633 zero_point=0
0.24544513 -0.005167266 0.11626348 0.06975809 -0.077508986 -0.11367985 0.012918165 0.16793615
0.041338127 0.21444154 -0.020669064 0.19377246 0.11367985 -0.10334532 -0.09559442 0.2196088
-0.10851258 0.09042715 -0.04392176 -0.12143075 -0.2118579 0.0077508986 0.11109622 -0.2273597
-0.020669064 0.14985071 0.12659802 -0.10076168 0.22994334 0.11626348 -0.038754493 0.12918165
0.10076168 0.0 -0.2351106 -0.077508986 0.08784352 0.09301078 -0.06200719 0.09301078
-0.21444154 -0.2428615 0.22219244 -0.20927426 0.072341725 -0.15501797 0.13951617 0.20152336
-0.15760161 -0.22994334 0.20669064 -0.04650539 0.204107 0.04650539 0.21444154 0.16535251
0.17568704 0.16276887 -0.049089026 0.09559442 0.10334532 -0.056839924 0.15501797 -0.06975809
-0.14985071 0.036170863 0.13434891 -0.09817805 0.031003594 -0.04392176 -0.010334532 -0.14726707
0.19893974 -0.11884712 0.080092624 0.056839924 -0.12659802 0.11109622 -0.06200719 -0.204107
0.13176528 0.074925356 -0.1886052 -0.11367985 0.12401438 -0.03358723 -0.1808543 0.082676254
0.14985071 -0.036170863 -0.03358723 0.12659802 -0.077508986 -0.24544513 0.13951617 0.04392176
0.03358723 -0.16018525 -0.12143075 -0.14985071 -0.21444154 0.16018525 0.08784352 -0.038754493
0.023252696 -0.2118579 0.10334532 -0.06717446 -0.11884712 -0.10592895 0.10851258 0.012918165
-0.2428615 -0.16535251 0.23769423 0.22477606 0.2583633 0.20669064 -0.0077508986 0.015501797
0.02583633 0.1886052 0.17051977 0.2118579 -0.14985071 -0.12401438 0.11626348 -0.005167266
0.16276887 0.2196088 -0.16793615 -0.2506124 -0.22219244 0.19118884 0.15243435 0.1886052
-0.20669064 0.1886052 -0.19118884 -0.13693255 -0.25577965 -0.09301078 0.10334532 -0.14726707
0.038754493 0.16793615 0.09301078 -0.028419962 -0.17827067 0.074925356 -0.18343794 0.16276887
0.11367985 -0.010334532 -0.13434891 0.10076168 0.031003594 0.0077508986 -0.14985071 -0.05942356
-0.049089026 -0.28678325 0.2273597 -0.16018525 0.072341725 -0.10334532 -0.20927426 0.06975809
-0.14468345 -0.12659802 0.1808543 -0.08784352 -0.19377246 -0.06459083 0.18343794 -0.10334532
-0.17051977 -0.13434891 -0.16793615 0.015501797 -0.12143075 0.036170863 -0.015501797 -0.036170863
0.005167266 0.20669064 0.13434891 -0.29195052 -0.06975809 0.24027786 -0.12401438 0.17827067
-0.2428615 -0.02583633 0.028419962 -0.1731034 0.22994334 -0.05942356 -0.012918165 0.05167266
-0.02583633 -0.023252696 0.26353055 0.17827067 -0.02583633 -0.21702516 -0.08784352 0.14726707
0.2506124 -0.24027786 0.005167266 0.10076168 -0.14726707 0.1886052 0.21702516 0.077508986
0.2351106 0.10334532 0.1886052 -0.03358723 0.17568704 0.11626348 -0.041338127 -0.17827067
-0.1731034 -0.21444154 0.015501797 -0.10334532 -0.12143075 -0.14209981 0.17568704 0.22994334
-0.05425629 0.10076168 -0.03358723 -0.04392176 -0.05425629 0.031003594 -0.21444154 -0.1808543
0.25319603 0.1731034 0.010334532 0.072341725 -0.16276887 -0.21444154 0.13951617 -0.015501797
-0.11367985 -0.17827067 -0.12918165 -0.14209981 0.13693255 0.26094693 0.15501797 -0.13176528
00000000: 5ffe 2d1b e2d4 0541 1053 f84b 2cd8 db55
00000010: d623 efd1 ae03 2ba8 f83a 31d9 592d f132
00000020: 2700 a5e2 2224 e824 ada2 56af 1cc4 364e
00000030: c3a7 50ee 4f12 5340 443f ed25 28ea 3ce5
00000040: c60e 34da 0cef fcc7 4dd2 1f16 cf2b e8b1
00000050: 331d b7d4 30f3 ba20 3af2 f331 e2a1 3611
00000060: 0dc2 d1c6 ad3e 22f1 09ae 28e6 d2d7 2a05
00000070: a2c0 5c57 6450 fd06 0a49 4252 c6d0 2dfe
00000080: 3f55 bf9f aa4a 3b49 b049 b6cb 9ddc 28c7
00000090: 0f41 24f5 bb1d b93f 2cfc cc27 0c03 c6e9
000000a0: ed91 58c2 1cd8 af1b c8cf 46de b5e7 47d8
000000b0: becc bf06 d10e faf2 0250 348f e55d d045
000000c0: a2f6 0bbd 59e9 fb14 f6f7 6645 f6ac de39
000000d0: 61a3 0227 c749 541e 5b28 49f3 442d f0bb
000000e0: bdad 06d8 d1c9 4459 eb27 f3ef eb0c adba
000000f0: 6243 041c c1ad 36fa d4bb cec9 3565 3ccd

sequential_1/dense_1/MatMul i1 [256, 22] scale=0.0019972431 zero_point=0
0.06990351 -0.011983459 0.019972432 0.091873184 -0.041942105 -0.08188697 0.04393935 -0.027961403
-0.04993108 -0.061914537 0.025964161 -0.10984837 -0.073897995 -0.06990351 -0.013980702 -0.16976567
-0.121831834 -0.105853885 -0.0019972431 0.05792005 -0.041942105 0.089875944 0.047933836 -0.121831834
0.061914537 0.05792005 0.071900755 -0.105853885 -0.059917293 -0.029958647 0.025964161 0.13780978
0.08188697 0.10984837 0.0039944863 0.053925566 0.053925566 0.11384286 -0.07789248 0.03794762
0.029958647 -0.029958647 0.017975189 -0.103856646 -0.04993108 0.06990351 -0.019972432 0.013980702
-0.033953134 0.123829074 -0.14380151 0.061914537 -0.11983459 -0.059917293 0.07988973 -0.061914537
-0.1018594 0.04393935 -0.05792005 0.1018594 -0.023966918 0.015977945 -0.08188697 -0.091873184
-0.09786491 0.09387043 0.121831834 0.027961403 0.103856646 0.045936592 0.061914537 0.017975189
0.03794762 0.023966918 -0.009986216 -0.059917293 -0.08388421 0.1158401 -0.015977945 0.041942105
0.12582631 -0.14380151 0.025964161 0.055922806 -0.13980702 -0.04993108 -0.041942105 -0.11184561
-0.10984837 -0.025964161 -0.11184561 0.09387043 0.11384286 0.027961403 -0.055922806 -0.06990351
-0.11184561 -0.12782356 -0.11184561 0.039944865 0.123829074 -0.06391178 -0.11184561 -0.0059917294
0.06790627 0.045936592 -0.11384286 0.03794762 -0.045936592 -0.041942105 0.039944865 -0.033953134
-0.121831834 -0.061914537 0.011983459 0.05792005 0.039944865 0.08188697 -0.071900755 0.0
0.061914537 -0.07988973 -0.0059917294 -0.073897995 0.121831834 -0.011983459 -0.015977945 0.09586767
0.055922806 0.027961403 0.06391178 0.039944865 0.1158401 0.089875944 -0.021969674 -0.03794762
-0.12782356 -0.06590902 0.071900755 0.091873184 0.07589524 -0.11983459 0.071900755 -0.059917293
-0.15179048 0.123829074 -0.055922806 -0.06590902 0.047933836 -0.047933836 -0.09786491 -0.059917293
-0.13381529 -0.20971052 -0.089875944 -0.0039944863 0.0039944863 -0.13581254 0.05792005 -0.047933836
-0.011983459 -0.1158401 -0.16976567 0.029958647 0.103856646 0.039944865 -0.08588146 -0.08588146
-0.09586767 -0.13181804 0.045936592 0.019972432 -0.011983459 0.053925566 0.12582631 0.121831834
0.015977945 -0.12582631 0.007988973 -0.039944865 -0.019972432 0.03195589 -0.1158401 0.053925566
-0.12982081 0.13780978 -0.13381529 -0.019972432 -0.091873184 0.073897995 0.13381529 -0.017975189
0.033953134 0.06590902 0.11384286 -0.061914537 0.025964161 0.0019972431 0.035950378 -0.015977945
-0.053925566 0.045936592 0.053925566 -0.089875944 0.08188697 -0.08588146 -0.011983459 -0.05792005
-0.10984837 0.019972432 -0.007988973 0.071900755 0.03195589 0.16377394 0.05792005 0.041942105
-0.04393935 0.14579874 -0.07789248 -0.061914537 -0.09986216 -0.017975189 0.12782356 -0.089875944
0.06391178 0.0019972431 0.017975189 0.055922806 0.091873184 -0.121831834 -0.08188697 0.123829074
-0.03794762 0.059917293 -0.14380151 -0.073897995 -0.0878787 -0.011983459 -0.103856646 0.029958647
-0.06590902 -0.16776842 -0.023966918 0.04393935 0.041942105 0.09586767 -0.047933836 0.091873184
0.023966918 -0.07789248 0.09986216 0.009986216 0.07988973 0.007988973 -0.035950378 0.09786491
00000000: 23fa 0a2e ebd7 16f2 e7e1 0dc9 dbdd f9ab
00000010: c3cb ff1d eb2d 18c3 1f1d 24cb e2f1 0d45
00000020: 2937 021b 1b39 d913 0ff1 09cc e723 f607
00000030: ef3e b81f c4e2 28e1 cd16 e333 f408 d7d2
00000040: cf2f 3d0e 3417 1f09 130c fbe2 d63a f815
00000050: 3fb8 0d1c bae7 ebc8 c9f3 c82f 390e e4dd
00000060: c8c0 c814 3ee0 c8fd 2217 c713 e9eb 14ef
00000070: c3e1 061d 1429 dc00 1fd8 fddb 3dfa f830
00000080: 1c0e 2014 3a2d f5ed c0df 242e 26c4 24e2
00000090: b43e e4df 18e8 cfe2 bd97 d3fe 02bc 1de8
000000a0: fac6 ab0f 3414 d5d5 d0be 170a fa1b 3f3d
000000b0: 08c1 04ec f610 c61b bf45 bdf6 d225 43f7
000000c0: 1121 39e1 0d01 12f8 e517 1bd3 29d5 fae3
000000d0: c90a fc24 1052 1d15 ea49 d9e1 cef7 40d3
000000e0: 2001 091c 2ec3 d73e ed1e b8db d4fa cc0f
000000f0: dfac f416 1530 e82e 0cd9 3205 2804 ee31
