app/src/main/assets/models/battery/model.tflite (tflite, 86024 bytes, 16 tensors)

arith.constant4 f4 [256]
00000000: acf5 8bbc 9b10 bbbb 9dde 81bc d0e5 943c
00000010: 06bc 853c 7bca a33c ebb0 2f3c f226 d93a
00000020: 5c4f 9fba fbb8 933c c5f8 89bc 3d66 58bc
00000030: dabb 30bc 8609 b4bc afcd d8bb d908 cbbc
00000040: 2c47 bcba c40f e2bc 7c9f 94bc 6c25 44bc
00000050: 53ee 2fbc 0e23 78bc d96f a9ba fc3f 793b
00000060: e7ca 1fba 9659 dcba 5846 f2bb a39e fabb
00000070: 2463 a7bb 4417 273d c83d 783a 272f b8bb
00000080: 177d 68bc dc2c 9c3c 96aa 563b 1f99 86bb
00000090: ca8c 7cb9 d107 19bc 6c0c a2bb abda bfbc
000000a0: b046 7fbc 1ca1 acbb ceb6 20bc f954 c03a
000000b0: f060 b23b 3be7 f13b 41d7 88bb f738 20bc
000000c0: 9658 003c 80dd a3bb d934 23ba f889 61bc
000000d0: 51d9 183c e8e3 0d3c 8fb2 c1bb 6094 bd3b
000000e0: 3316 14bc 842e cbbb 1384 37bb e4ef 87bc
000000f0: f144 0cbc 4ad0 553a 273f 7fbc 2658 8c3c
00000100: 301e 7b3f 3d32 7f3f 0476 7b3f 401b 823f
00000110: 4e22 823f 3b34 823f 565e 813f df7c 803f
00000120: c017 803f b13c 823f 1a2b 7d3f a7c5 7b3f
00000130: 26f0 7d3f 03d3 7a3f c253 7e3f ef75 7a3f
00000140: af2c 7f3f 9a71 793f 7b7c 7a3f 76d7 7e3f
00000150: 4f1a 7d3f 4b33 7d3f 1e49 7e3f af57 803f
00000160: d16c 7f3f 5cec 7e3f 1afb 7c3f ac4b 7e3f
00000170: c73e 7f3f f9a6 853f a7b4 7e3f 9669 7f3f
00000180: 0cb6 7c3f 7777 823f 932b 803f b21b 7e3f
00000190: 434b 803f 03c5 7e3f 2428 7f3f 8f4e 7a3f
000001a0: b3c4 7b3f c30e 7f3f 3171 7d3f 4ca9 7f3f
000001b0: 909b 813f 6a68 803f 97b9 7e3f 211d 7d3f
000001c0: 5f85 813f b8e3 7e3f 2924 803f 0d2f 7c3f
000001d0: 4340 813f 4a2f 813f 6e58 7d3f 70b7 803f
000001e0: 7712 7e3f 91dd 7e3f dcf5 7f3f 256f 7b3f
000001f0: fe74 7c3f 298c 813f bb96 7b3f c07d 823f
00000200: adfe 4a3a 7d1e a53a 2164 3a3c 74ce 573a
00000210: 097a 913b 7f42 77bc 157e 90bc e2a7 6b3c
00000220: 02c4 aa3b b471 9c3c e2f0 7c3c de8f c93a
00000230: a647 2abc 0b06 a2bb b1a4 303c cca2 90ba
00000240: 4c26 5c38 6b4e d7ba e9e0 31bc 5c44 313b
00000250: fa58 b33b ba34 213c 0ca5 a93b 671a 66bb
00000260: 4887 76bc 488a e0bb 4672 17ba f088 d73b
00000270: d4ed 78bc dca5 31bc ef3e 343c 0ce7 333b
00000280: b2fd 28bb ef5a 3c3c 48cc 2fbc 3572 fcbb
00000290: d1c7 903b c146 1abc 1da5 083c 50f2 bb3b
000002a0: 3ed1 fb3b 4bee 383c 3508 11bb b5a4 acbc
000002b0: b1db a93a 8c3f dfbb 39f8 bbbb f1bf eb3a
000002c0: 78f6 0d3c 610a 23bc 0745 943b c2e8 443c
000002d0: e584 dabb 3cd3 00bc 066e 703c 28c1 49bc
000002e0: ea3a 5b3c cda1 79bb 5aaa 19bc 7a8a 1fbc
000002f0: e982 c93b 0f38 29bb 47d2 95ba cb43 2a3c
00000300: 3b0e 86bc 3a21 b3bb 32f3 a0bc d35e 783c
00000310: c9a3 763c b16b 133b f2b1 bf3b 76f8 1a3b
00000320: 9d16 93bb 875f 2e3c d26e 99bc bfff 72bc
00000330: 0532 0fbc f067 abbc a29b 82bb 7ae5 c5bc
00000340: 3cfb a7b9 9908 b0bc 50d7 9abc 1b19 57bc
00000350: 0665 26bc 8f45 82bc 8c95 a239 148f b6b9
00000360: afae 95ba e3cc 8d3b 618d dcbb 03d5 5dbc
00000370: ce31 973a 4fb9 0e3c f52d debb 0409 c2bb
00000380: ef18 69bc cb29 6a3c bab3 213c ea18 98bb
00000390: 0373 70bb 56ae 3abc f6f7 27bc b722 c0bc
000003a0: b3c5 81bc 9609 5dbc df9d 79bc b6a3 343b
000003b0: 076b 953b 42fa da3b 4926 ebbb 0a2c 4cbc
000003c0: 897c 183c 000b 13bc fe6a 22b9 1770 64bc
000003d0: 8f25 393b 58d5 af39 d4a7 e7bb 45ce 6c3a
000003e0: e5ad 02bc ceda eebb bac2 373a cde7 71bc
000003f0: aa1e 23bc 4fb3 893a b1b0 72bc 586a 583c
-0.017084919 -0.0057087666 -0.01585322 0.01817599 0.016325008 0.019994011 0.010723333 0.0016567393
-0.0012154388 0.018032541 -0.016842255 -0.013207969 -0.010786975 -0.021977197 -0.0066163163 -0.024784492
-0.0014364473 -0.027595408 -0.018142454 -0.011971813 -0.010737973 -0.015145076 -0.001292701 0.0038032522
-0.00060956035 -0.0016811367 -0.0073936395 -0.0076483055 -0.005108254 0.040793672 0.00094696553 -0.0056208554
-0.01418998 0.01906436 0.0032755486 -0.004107609 -0.00024085041 -0.0093402425 -0.0049453285 -0.023419699
-0.015580818 -0.005268229 -0.009809209 0.0014673761 0.0054436848 0.007382301 -0.004176051 -0.0097792065
0.0078336205 -0.00500077 -0.00062258315 -0.0137658045 0.009329156 0.008660294 -0.0059111784 0.00578551
-0.009038496 -0.0062006135 -0.0028002306 -0.016593881 -0.008561359 0.00081563427 -0.015579022 0.017131876
0.9809294 0.9968603 0.9822695 1.0164566 1.0166719 1.017219 1.0106914 1.0038108
1.0007248 1.0174772 0.9889389 0.9834847 0.9919456 0.9797823 0.99346554 0.978362
0.99677557 0.9743897 0.9784619 0.9954752 0.9886827 0.9890639 0.9933032 1.0026759
0.99775416 0.99579406 0.9882065 0.99334216 0.99705166 1.0441581 0.99494404 0.99770486
0.9871528 1.0192708 1.0013298 0.9926101 1.0022968 0.99519366 0.99670625 0.9777612
0.98347014 0.996319 0.9900084 0.998677 1.0125599 1.0031865 0.9950194 0.9887257
1.0118827 0.9956622 1.0011035 0.98509294 1.0097736 1.0092556 0.9896306 1.0055981
0.99246925 0.99556834 0.99984527 0.9821647 0.98616016 1.0120898 0.9827687 1.0194626
0.0007743638 0.0012597587 0.011376412 0.0008232363 0.0044395966 -0.0150915375 -0.017638246 0.014383288
0.0052113542 0.019097187 0.01543829 0.0015377959 -0.010393059 -0.004944568 0.010781453 -0.0011034845
5.2487754e-05 -0.0016426569 -0.010856845 0.0027048802 0.0054732533 0.009839231 0.005177146 -0.0035110952
-0.015046902 -0.006852422 -0.0005777221 0.0065776035 -0.015193421 -0.010842767 0.011001333 0.0027450947
-0.002578598 0.01149629 -0.010729857 -0.007704044 0.004418351 -0.009416283 0.008340147 0.005735673
0.0076848557 0.011287282 -0.0022130136 -0.021074632 0.001295915 -0.0068129953 -0.0057363776 0.001798628
0.00866472 -0.009951205 0.0045248303 0.012018384 -0.0066686743 -0.007862862 0.014674669 -0.012314118
0.013380745 -0.0038090826 -0.009378994 -0.009737605 0.006149639 -0.0025820767 -0.0011430465 0.01039214
-0.016364207 -0.0054666074 -0.019647215 0.015159327 0.015053698 0.002249461 0.00585007 0.002364663
-0.0044887797 0.010642893 -0.018729601 -0.014831482 -0.008739953 -0.020923585 -0.003985838 -0.024157275
-0.00032039906 -0.021488475 -0.018901497 -0.013128544 -0.010155922 -0.015902309 0.0003101047 -0.00034820347
-0.0011419858 0.004327403 -0.006730721 -0.0135395555 0.0011535229 0.008711173 -0.006780381 -0.005921485
-0.014227136 0.014292191 0.00986951 -0.004641642 -0.0036689646 -0.011394104 -0.01025199 -0.023454053
-0.01584134 -0.013491055 -0.015235393 0.00275634 0.004559878 0.006682665 -0.007176195 -0.012461672
0.009307035 -0.008974791 -0.00015489382 -0.01394274 0.0028251146 0.00033537555 -0.007069567 0.0009033422
-0.00797603 -0.007289267 0.00070099125 -0.014764738 -0.009956041 0.0010505709 -0.014812634 0.013208948

arith.constant9 f4 [256]
00000000: b6b1 95bb bf8f 243c 06e7 073c 40e3 3ebc
00000010: ae09 1fbc da37 c83b 0573 8bbc ed8c 263c
00000020: 04ed fdbb bca3 59b9 8d1c 1abb 7e15 413b
00000030: 18d3 3fbc e5ea e6bb 8ec9 e0bb 18ad 77bc
00000040: 57be 293b 4e20 02bc 4a75 5abb 2363 813c
00000050: 498f 743c 1e9c b4bb e5be ff3b 3e93 55bc
00000060: 296f b83c 9d1e 4f3c 36f8 24bc eab5 3e3b
00000070: 4b52 023c 7699 85bc 1d8d 2e3d 7c72 513c
00000080: e007 3fb9 d675 033c 4d36 b13c 260f 3dbb
00000090: 22a7 533c ff85 8bbb d344 a33b d19a 81bc
000000a0: 9a72 7d3b 329f aebb fe8c b6bc 7acb 583c
000000b0: dd91 2d3a 229b 4dbc 0437 8a3c 682b 933b
000000c0: 115b 8cbc 8748 803c 10f2 ea39 1550 2dbb
000000d0: 496f 2a3a 4f3c 743c 3750 453c 08c4 5cbb
000000e0: 73d6 b13a 6505 a43c cdbc db3a ae18 47bc
000000f0: cf91 823c fdc1 45bc 758b 85bb 19b6 e0ba
00000100: c709 803f 955c 813f 98f8 803f ffe6 7b3f
00000110: 42fd 803f b538 813f 47c5 7f3f 4f89 803f
00000120: 4e74 7e3f b61c 833f 937e 7d3f 4710 803f
00000130: 1d57 7c3f ee36 7f3f d0de 7d3f cbde 7c3f
00000140: 8c44 7f3f 0d3b 7e3f 4274 7e3f d53b 813f
00000150: 27cf 813f 7f00 7d3f d5ef 803f 7856 803f
00000160: facc 813f 4146 813f 6bb5 7d3f 34d0 803f
00000170: b8cb 7e3f 8d78 7d3f 95d5 843f 65f2 803f
00000180: 6dc6 7f3f 5d77 803f cbf9 813f 259d 7e3f
00000190: 2910 803f 3768 7d3f efbe 7f3f b3f0 7b3f
000001a0: ddb5 7e3f 435b 803f 7f07 7d3f 8537 813f
000001b0: 226a 7f3f 30eb 7c3f 6466 813f 5c58 7f3f
000001c0: ef4e 7f3f 4ec2 803f 66a1 7d3f b69d 803f
000001d0: 5415 7f3f f060 813f 1de6 813f c630 7d3f
000001e0: 085e 803f f704 813f c6a2 7f3f bd28 7d3f
000001f0: 53e7 7f3f 6d61 803f 2748 7f3f fd8f 7e3f
00000200: c98b 7a3b 1cb4 833c 7a1e 1d3c 020c f43b
00000210: f506 9bbc f099 12b8 a1c6 d4bb cc12 eb3a
00000220: f41a 8e39 493d 76bb 8ff8 c2bc a024 aa3c
00000230: b36f 1f3c 1e5f e139 79ce 60bc c54f 16bc
00000240: cdef 19bb ea11 7abb fe08 8ebb c000 3dba
00000250: 2ee3 d93b b328 ea3b 032a d53b a0fc bb3b
00000260: 20df 2dbc 74f3 093c 69a5 21bc f5cf 65ba
00000270: 432e 09ba ede6 533b 2549 e539 ffea c03b
00000280: c970 1e3b 2128 1a3b f633 453c ca59 1a3b
00000290: 7b3f c1bb 4194 953b d7ac 5cbb 95e8 563a
000002a0: 0a24 1cba ae6c 21bc 9f09 02ba ed17 2abc
000002b0: 9282 903b 892d ddbb 2b29 1d3c c047 f6bb
000002c0: c06f 89bb b4d7 1ebc 42ce 98ba 2f5e d1bb
000002d0: ccc1 073b 9e54 c2ba 80b6 473c 4b0a 253c
000002e0: 57b9 863b dac1 4dbc 7752 2ebc 856d 3fbb
000002f0: c173 143c 9acd 443b c243 84bb 6238 ee3a
00000300: e185 c8bb bbf9 193c e387 613b 374b 33bc
00000310: c705 75bb 0e55 2bba a9a7 d1ba 6275 0b3c
00000320: 0b93 e6bb 3a3a 923b daf5 d5bb 499b cfba
00000330: c2d5 17bc 2e3c 5abb af63 b5bb 2c08 60bc
00000340: 00fb ebbb 22b5 2cbc c072 79b9 345d ad3c
00000350: aaa6 a13c a0bf acbb e356 ce3b 119c 9fbb
00000360: abc6 a13c bc22 523c b53f ecbb 0b8b 823b
00000370: d659 a33b 6adb cdbb 0a6c db3c d114 bf39
00000380: 8fb8 ad3b 1ac4 a23c 6893 a23c 9638 3ebb
00000390: e6a8 313c 29bd f5bb 8296 133a c6ea 2cbb
000003a0: 4047 8f3b d3d1 d7bb bc43 89bc 6dd2 273c
000003b0: a018 823b 80c1 5ebc c851 483c e991 753b
000003c0: 7fc1 8e3b db62 823b 1f1a 123b 2362 e9ba
000003d0: 1027 55bb be62 593c 8603 f6bb 38dd e7bb
000003e0: b0ab b83b 9060 f2bb ccf6 383b d71b 4cbc
000003f0: 035d 123c 4dcd 81bb 8c9c eebb 03c1 16bb
-0.004568304 0.010044037 0.008294826 -0.01165086 -0.009706898 0.0061101737 -0.017022619 0.010165435
-0.0077492017 -0.00020755728 -0.0023515553 0.0029462273 -0.0117080435 -0.0070470446 -0.0068599647 -0.015116952
0.0025900805 -0.007942272 -0.003333407 0.015794342 0.01492674 -0.0055117747 0.007804739 -0.013035594
0.022513943 0.012641576 -0.010068944 0.0029100128 0.0079541905 -0.016308527 0.042615045 0.012783643
-0.00018218113 0.0080237 0.021632338 -0.002884814 0.012918266 -0.004257917 0.0049825697 -0.015820893
0.0038673044 -0.005329036 -0.022284027 0.013232106 0.00066211616 -0.012549194 0.016871937 0.0044912584
-0.017133268 0.015659584 0.0004481231 -0.0026445438 0.0006501568 0.014906957 0.0120430505 -0.003368618
0.0013567939 0.020022104 0.0016764641 -0.01215188 0.015938668 -0.012070176 -0.0040754625 -0.0017144113
1.0002984 1.0106379 1.0075865 0.9839935 1.0077288 1.0095431 0.99910396 1.0041903
0.99396217 1.0243137 0.9902126 1.0004967 0.98570424 0.9969319 0.9916811 0.98777455
0.9971397 0.99308854 0.99396145 1.0096384 1.0141343 0.9882888 1.0073191 1.0026388
1.0140679 1.0099565 0.99104947 1.0063539 0.995296 0.9901207 1.037768 1.0073973
0.9991215 1.0036427 1.0154356 0.99458534 1.0004932 0.98987144 0.99900717 0.9841415
0.9949625 1.0027851 0.98839563 1.0095068 0.9977132 0.9879637 1.0109372 0.997442
0.9972982 1.0059297 0.990744 1.004813 0.9964192 1.0107708 1.014835 0.9890255
1.0028696 1.007964 0.9985775 0.98890287 0.9996235 1.0029732 0.9971947 0.9943846
0.003823029 0.016077094 0.009589786 0.0074477205 -0.018924216 -3.4952478e-05 -0.006493405 0.0017934679
0.00027104432 -0.003757315 -0.023800163 0.020769417 0.009731221 0.00042986212 -0.013721102 -0.009174292
-0.002348888 -0.003815765 -0.004334568 -0.00072098896 0.0066493964 0.007145965 0.0065052523 0.0057369024
-0.010612279 0.00841986 -0.009866097 -0.0008766645 -0.0005233029 0.0032333687 0.0004373278 0.0058873887
0.0024176112 0.0023522454 0.012036314 0.0023552054 -0.00589746 0.0045647924 -0.0033672357 0.00081981096
-0.0005956298 -0.009852571 -0.000496054 -0.010381681 0.0044100964 -0.006749813 0.009592335 -0.0075158775
-0.00419423 -0.009694982 -0.0011658149 -0.0063894014 0.0020714877 -0.0014826243 0.0121895075 0.010073255
0.0041114497 -0.012558425 -0.010639778 -0.0029209566 0.009060801 0.0030029775 -0.0040363977 0.0018174762
-0.0061194752 0.009397919 0.003441327 -0.010943226 -0.0037387477 -0.00065358065 -0.0015995401 0.008511873
-0.007036572 0.0044625076 -0.006529552 -0.0015839125 -0.009267272 -0.003330003 -0.005535565 -0.013673823
-0.0072015524 -0.010541232 -0.00023789238 0.021162607 0.019732792 -0.005271867 0.006296979 -0.0048708995
0.019748053 0.012825664 -0.007209743 0.0039838604 0.0049850745 -0.0062822597 0.026784915 0.00036445868
0.005301542 0.0198689 0.01984568 -0.0029025427 0.010843491 -0.0074993563 0.00056300324 -0.0026385053
0.0043725073 -0.0065862923 -0.016755931 0.0102430405 0.0039702207 -0.013595939 0.012226529 0.0037471002
0.0043565626 0.0039790696 0.0022293401 -0.0017805736 -0.0032524504 0.013268171 -0.0075077442 -0.007075932
0.005635701 -0.007396765 0.0028223274 -0.012457809 0.0089333085 -0.0039612413 -0.0072818454 -0.0023003228

arith.constant11 f4 [64]
00000000: 4d28 213b 9370 303c 5173 45bc 63b4 eabb
00000010: 45b1 ce3c 7ea0 0c3c df79 b83c fa5e b7bb
00000020: bada 1dbc 107c 0c3b 0000 0000 bc4b b93c
00000030: b445 393d 28d4 cc3b 0d3d c43c c2dd 04bc
00000040: 0000 0000 be57 103b d526 b6bb 6a3c e0bb
00000050: d323 3cbc 0000 0000 0a71 ecba 207f 7fbb
00000060: 0761 d2ba 1d1c ecbb 7a27 27bc bfa0 3f3c
00000070: 7ffa d13b 8876 09bc af34 a33c b3e2 0bbc
00000080: 0000 0000 aea9 293b d5fa 8bbb 8145 d4bb
00000090: a3ab 5fbb fef9 8b3c b5cc 3ebc 04b1 c8b8
000000a0: 5afc a9bb c9b8 0c3d 52b6 74bb 8a7c fabb
000000b0: 31d1 93bc cc97 8d3b 0000 0000 9b16 b2bc
000000c0: 6a81 e8bb 83f0 b5bb 4851 d1ba 6760 a8bc
000000d0: 0000 0000 968a 183c 3d43 a03b 0000 0000
000000e0: 0000 0000 52ce 8b3a ed1a a3bb 2701 2abc
000000f0: ed26 b63b 972a 353b 53eb 0a3c 36f7 2bbb
0.0024590672 0.010769027 -0.012051419 -0.007162617 0.025231013 0.008583186 0.02251905 -0.005596039
-0.009634668 0.0021436252 0.0 0.02261912 0.04523249 0.006250877 0.023954893 -0.008109512
0.0 0.0022024955 -0.0055588284 -0.0068431394 -0.0114831505 0.0 -0.0018039059 -0.0038985685
-0.0016050645 -0.0072055 -0.010202283 0.01169604 0.0064080353 -0.008390076 0.019922582 -0.008537936
0.0 0.002588849 -0.004271845 -0.006478012 -0.0034129403 0.017086979 -0.011645486 -9.569715e-05
-0.0051875534 0.034355912 -0.0037340117 -0.0076442407 -0.018044086 0.004321074 0.0 -0.021739295
-0.0070955055 -0.005552353 -0.0015969658 -0.02055378 0.0 0.009310385 0.004890828 0.0
0.0 0.0010666347 -0.004977575 -0.010376251 0.0055588395 0.0027643794 0.008478957 -0.0026239878

arith.constant13 f4 [32]
00000000: c8a8 21bb f201 0ebc 1c54 593c 8a9a 2dbc
00000010: 91f4 053b db57 bebb 1b1b dc3b c1d7 22bc
00000020: 35c8 d6bb 1d13 24bc e32a 2a3a baf2 47bc
00000030: d16a a53b b145 293c 0edf c63b 6502 203c
00000040: b349 e2bb ce7a f2bb 6e5a 363c 039c ca3b
00000050: d766 abba 9132 29bc d968 c2bb a4af 153c
00000060: 7f99 c6bc a657 213c e845 063c 7436 993c
00000070: 1b9d de3b ba60 e13b 9ff3 d4bb eeb2 45bc
-0.0024667252 -0.008667456 0.013264682 -0.010595927 0.0020439962 -0.005808813 0.0067170984 -0.009939135
-0.0065546283 -0.010014323 0.0006491376 -0.012203867 0.005048134 0.010331557 0.0060690707 0.009766196
-0.0069057583 -0.0073998934 0.011129959 0.006183149 -0.0013076913 -0.010326997 -0.005932909 0.009136114
-0.024243115 0.009847557 0.008195378 0.018702723 0.006793631 0.006877986 -0.0064987685 -0.012066586

arith.constant14 f4 [1, 64]
00000000: 1e44 00bf 7a1f 00bd 42e5 a6bf c240 15be
00000010: 9c93 60be 17fc 823f 4d4f 66bf ce3f a5bf
00000020: ead6 893f a2ba c83e 2ef5 ca3e 0d42 a8bf
00000030: bd32 1f3e 3bac 0340 7f8d b93f c6be 7ebf
00000040: d06c 533f e9b2 7c3f c3c6 ec3e 05d8 84bf
00000050: 17f2 973f d185 0740 2236 e93f 0502 ce3f
00000060: 73c5 b83f 7bce 18bf e91d f5bf 019b a93f
00000070: b89a f73f 2aa8 a93f e151 b5bf e925 a73f
00000080: 54f0 73bf eb93 343e 9c5f 13c0 b1ad d4bf
00000090: 9546 a23b e408 813f 179e f2be 282c bf3f
000000a0: e35b 48bf 38ee d13e 9107 863e d244 033f
000000b0: 0b6d 7d3f 5d94 d2bf 3940 2440 3dbe 73bf
000000c0: f077 14c0 646e 10c0 2210 91be fecf d0bf
000000d0: 4f48 d33f 52f0 d23f 8ed0 a3bf d2c7 8bbf
000000e0: da49 1cc0 717f 8dbf 9a38 853f 5770 6ebe
000000f0: 6ff2 b1be 99fa a43f d7d6 bd3c bea7 ec3f
-0.5010394 -0.03128002 -1.3038714 -0.14575484 -0.21931309 1.0233182 -0.89964753 -1.2910097
1.0768712 0.3920489 0.39640182 -1.3145157 0.15546699 2.057387 1.4496306 -0.9950985
0.8258791 0.98710495 0.46245393 -1.0378424 1.1870755 2.1175425 1.8219645 1.6094366
1.4435257 -0.59690064 -1.9149753 1.3250428 1.9344091 1.3254445 -1.4165612 1.3058444
-0.95288587 0.17634551 -2.3027105 -1.6615506 0.0049522617 1.0080838 -0.47386238 1.493535
-0.7826521 0.4100206 0.26177648 0.51276886 0.9899451 -1.6451527 2.5664198 -0.95212156
-2.3198204 -2.2567377 -0.2833262 -1.6313474 1.6506442 1.647959 -1.2798021 -1.0920355
-2.4420075 -1.1054517 1.0407898 -0.23285042 -0.34755275 1.2888976 0.023173733 1.8488691

arith.constant16 f4 [3, 64]
00000000: 13fc 823f f39c ddbf 3bbf 85bf 602c 19c0
00000010: e3a3 c43f 452b 8d3f 6102 1440 2734 c83f
00000020: 4a0b 08c0 4a05 803f de31 5c40 2e24 c5bf
00000030: e5e3 1340 5ec2 933f 6dcd 8cbd 3a90 93bf
00000040: 5d35 5740 3835 0f40 52e1 66bf 110f dcbd
00000050: 8c93 c23f 9c92 12c0 622b 35c0 cd8c b0be
00000060: e9cc df3f 8773 83be a420 273f 0190 08bc
00000070: 9763 e6bf 2146 d1bf 3a61 f03f 8054 cb3e
00000080: a195 89c0 7565 e6bf 3ba1 53be 7ede d53d
00000090: f005 b63e c725 e6bf f44c 913f df1f 36c0
000000a0: 0b49 0dc0 4a12 c63f 5372 02be 75db 0740
000000b0: f2eb a1bf 925b 42bf bb24 8640 89be 8fbf
000000c0: a50e 2bc0 72df 1140 5467 d3bf 2c70 ff3f
000000d0: c2a2 2bc0 e482 cbbf 1719 133f fe56 6840
000000e0: d8c2 8dc0 0a39 923f 069c 0a3e 1d4a 293e
000000f0: e788 8dbf e4de 10c0 869a 0940 3e80 21c0
00000100: c7e1 433f 99e5 7cbf e208 1abd faed 2540
00000110: 1ad1 613f 8fbf a3bf 143b 4abf 5a7d 37c0
00000120: d779 4b40 fc84 2dbf 1acf 94c0 6977 a13f
00000130: d3bb 8c3e dd20 263f 9ae4 20c0 5637 783f
00000140: 8805 8ec0 8661 15c0 45ea 5840 b2cf e53f
00000150: b1b1 82c0 8d68 8e40 b12f ec3f 0a00 6c40
00000160: c31d 63bf 80d0 be3f efad 36c0 cf63 b03f
00000170: bc37 04c0 7709 753e 9545 5cbf 5887 21c0
00000180: d38f 8a40 57ce ee3f 11b0 20c0 b2ef 4abf
00000190: 6250 bdbf 46ea f4bf a842 75bf 34d1 2140
000001a0: 193b 6440 85ef 4ebf b3e9 61c0 9e61 10c0
000001b0: c071 c83f 6682 d13f efa7 43c0 1825 5940
000001c0: 00b6 7040 4863 80c0 5658 3fbf 93d4 8dbf
000001d0: e119 da3f b134 283d f21a 97bf 84eb 64c0
000001e0: b274 1840 2fd4 f5bf 407d 1ac0 d0b4 1840
000001f0: dd73 9c3f 1d83 98bf b107 7d3f f365 bc3f
00000200: bed3 7abf 1fa4 d83f aaa5 d4bf 820a 86bf
00000210: fae0 ff3e b2a3 c33f a75f 823f d7f5 603e
00000220: b9d3 33be 2a4e 7fbf e99b 8c40 f12a 08c0
00000230: 401b c63e 5724 0240 e446 e4bf ebdb ddbb
00000240: 9958 2140 822f 363f 84ec 5bc0 9343 1cc0
00000250: f2cc b93e 4305 8dc0 9237 623e 9fda 3ec0
00000260: 4366 013f dd71 f0be 44a5 6240 45fa 6b3f
00000270: af2e c6bf 8351 a43f 2f74 963e 0d55 4640
00000280: 5811 32c0 1079 a7be 8aba c3bf 81f6 3940
00000290: fd71 783e ce50 de3d 8354 1540 70ca bfbf
000002a0: f34f 7fbe 3814 89be 4266 4940 2d9e 733f
000002b0: b77b 2f3d 8a6c b23f f81f 8a3e b767 db3d
000002c0: 07c5 84c0 9fc5 193f 2d73 0740 4666 e33f
000002d0: ff97 8ec0 f768 0140 17d1 ea3f 4cc1 5140
000002e0: db69 3fc0 8f72 b73f 8797 1940 b6bf 94c0
000002f0: 9261 0bc0 6bc3 cebf 6972 e63f 00b4 e3bf
1.0233177 -1.7313522 -1.0448984 -2.3933334 1.5362514 1.102883 2.3126452 1.5640916
-2.125689 1.0001614 3.4405437 -1.5401666 2.3107846 1.1543691 -0.06875119 -1.152839
3.362632 2.2376232 -0.9018756 -0.10745061 1.5201278 -2.2901983 -2.8307729 -0.34482422
1.7484409 -0.25674078 0.6528418 -0.008335114 -1.7999142 -1.6349527 1.8779671 0.39712906
-4.2995152 -1.7999712 -0.20666973 0.10442828 0.35551405 -1.7980279 1.1351609 -2.8456953
-2.2075832 1.5474331 -0.12738924 2.1227696 -1.265013 -0.75920975 4.1919837 -1.1230022
-2.6727688 2.279263 -1.6515908 1.9956107 -2.681809 -1.589932 0.5746016 3.6303096
-4.4300346 1.1423657 0.1353608 0.16532178 -1.1057404 -2.2636042 2.1500564 -2.5234523
0.76516384 -0.9878784 -0.037606128 2.59265 0.8820969 -1.2792834 -0.78996396 -2.8670259
3.1793115 -0.67781043 -4.650281 1.2614566 0.27487049 0.64893895 -2.5139527 0.96959436
-4.438175 -2.3340774 3.3892987 1.7954009 -4.084191 4.4502625 1.8452054 3.6875024
-0.8871729 1.4907379 -2.854366 1.3780459 -2.0659018 0.23929392 -0.86043674 -2.5238857
4.3300567 1.865672 -2.5107462 -0.79271996 -1.4790156 -1.9133995 -0.95804834 2.5283937
3.566107 -0.8083423 -3.5298889 -2.255958 1.5659714 1.636792 -3.0571249 3.392889
3.7611084 -4.0121193 -0.74744165 -1.1080498 1.7039148 0.041065875 -1.1805098 -3.5768747
2.3821225 -1.9205378 -2.4138947 2.386036 1.2222859 -1.1915013 0.9883986 1.4718612
-0.9797934 1.6925086 -1.6613057 -1.0471957 0.4997633 1.5284331 1.0185441 0.2196878
-0.17561235 -0.99728644 4.394032 -2.127621 0.38692665 2.033468 -1.7834134 -0.006770601
2.5210326 0.7116624 -3.4363108 -2.4416244 0.36289173 -4.4068923 0.22091511 -2.9820936
0.50546664 -0.4696187 3.541337 0.92178756 -1.5482997 1.2837375 0.29385516 3.098941
-2.7823086 -0.3270955 -1.5291302 2.9056704 0.24262233 0.10855256 2.3332832 -1.4983654
-0.24932842 -0.26773238 3.1468663 0.9516323 0.042842593 1.3939373 0.26977515 0.107131414
-4.149051 0.6006717 2.1164048 1.7765586 -4.456054 2.0220315 1.8345059 3.277423
-2.990836 1.4331836 2.3998735 -4.648402 -2.1778302 -1.6153387 1.8003665 -1.7789307

arith.constant17 f4 [3]
00000000: b3c2 ecbf 7c05 8440 8144 61c0
-1.8496917 4.1256695 -3.5198061

arith.constant18 f4 [1, 64]
00000000: 949c 56bf f834 03bf 193b 363f be44 10c0
00000010: 977d d93f 648b 7f3f efe1 d23e 072d e13f
00000020: cc79 7dc0 7210 4d3f 983b 3840 b04e abbf
00000030: baee 74be cbda ef3f e551 843f 4f82 8e3f
00000040: 0a3f 453f 12e8 4a3f 48e0 b5bf 499c 23c0
00000050: c245 4540 9336 0fc0 86e5 47c0 4cd7 70c0
00000060: 190a 11bf 0958 e8be 1f21 d03f ffad f03f
00000070: 1600 fc3f 888a 05bf b94b 2d3f a02a f93f
00000080: 9ef2 07c0 3099 bdbf 191c 25bf 1f33 0440
00000090: 2894 39bf f989 30bf 1a34 2b40 985b d3be
000000a0: 435d 92c0 18d5 4bbf 2928 1240 3e66 d53f
000000b0: 04e8 98bf c622 b9bf c832 0240 4613 05bf
000000c0: ec41 8a3e a98c 0940 4280 0b40 865c 2340
000000d0: 84bc 8ac0 62bd b93f aa87 9abf 68d1 9340
000000e0: 8c75 28c0 58dc c33f c6a9 0940 86a2 3cc0
000000f0: 5308 c63f a093 00bf ad03 af3f 4899 933e
-0.8383267 -0.512527 0.71183926 -2.2541957 1.6991452 0.9982207 0.41188 1.7591866
-3.960559 0.8010322 2.8786373 -1.3383389 -0.23919192 1.8738645 1.0337492 1.1133517
0.77049315 0.7926036 -1.420907 -2.556414 3.0823827 -2.237706 -3.123384 -3.7631407
-0.5665603 -0.45379665 1.6260108 1.8803099 1.9687526 -0.52164507 0.6769367 1.9466133
-2.1241832 -1.4812374 -0.64496 2.0656202 -0.72491693 -0.6896053 2.675055 -0.41280818
-4.5738845 -0.7962203 2.2837012 1.6671827 -1.1945806 -1.4463737 2.0343494 -0.51982534
0.2700342 2.1492102 2.1797032 2.5525222 -4.335512 1.451092 -1.2072651 4.6193123
-2.6321745 1.5301619 2.1509871 -2.9474196 1.547129 -0.5022526 1.3672997 0.28827882

tfl.pseudo_qconst i1 [32, 1, 5, 7]
00000000: 62a6 d246 1811 f1ee 162c d45d 16f7 7f91
00000010: 29a3 dfcf 67ea e4c9 4d4a dbd8 6ff0 6690
00000020: dc21 d62c f143 68ae 1535 db90 e950 fa11
00000030: 8ed8 762b f6ce a526 b5ea 1469 d626 f4a9
00000040: e37a 816b 1b99 dac2 cbd5 4191 7f26 3960
00000050: a1fb d072 db8a f339 abb0 a95a 227f 18ab
00000060: 34d6 192d a55a e444 747f a9ed a0c9 564f
00000070: 381f f2fd a5b7 9b2e 4454 4d9b 904a 565b
00000080: 4144 ef2a ca6c 5656 f04c f4fe a739 556e
00000090: 1975 d2f5 c909 9a85 49fb 7f0f 9f2b 45be
000000a0: 76e5 5612 528d b32e dcc7 e961 60fd 6e23
000000b0: ab5a 5b1d 86f8 9cf1 bbcb 1929 fc1b 559e
000000c0: d2c4 7072 c27f 94d7 f5ff 4484 84b2 5e20
000000d0: 2667 7630 290c c55d 4cc4 5b33 9c81 bfdf
000000e0: 941d 05a7 1a19 519d fc63 d9a2 df31 8f3a
000000f0: aae0 8618 56bf 255e bba2 f11c 1e06 dd7f
98 -90 -46 70 24 17 -15 -18
22 44 -44 93 22 -9 127 -111
41 -93 -33 -49 103 -22 -28 -55
77 74 -37 -40 111 -16 102 -112
-36 33 -42 44 -15 67 104 -82
21 53 -37 -112 -23 80 -6 17
-114 -40 118 43 -10 -50 -91 38
-75 -22 20 105 -42 38 -12 -87
-29 122 -127 107 27 -103 -38 -62
-53 -43 65 -111 127 38 57 96
-95 -5 -48 114 -37 -118 -13 57
-85 -80 -87 90 34 127 24 -85
52 -42 25 45 -91 90 -28 68
116 127 -87 -19 -96 -55 86 79
56 31 -14 -3 -91 -73 -101 46
68 84 77 -101 -112 74 86 91
65 68 -17 42 -54 108 86 86
-16 76 -12 -2 -89 57 85 110
25 117 -46 -11 -55 9 -102 -123
73 -5 127 15 -97 43 69 -66
118 -27 86 18 82 -115 -77 46
-36 -57 -23 97 96 -3 110 35
-85 90 91 29 -122 -8 -100 -15
-69 -53 25 41 -4 27 85 -98
-46 -60 112 114 -62 127 -108 -41
-11 -1 68 -124 -124 -78 94 32
38 103 118 48 41 12 -59 93
76 -60 91 51 -100 -127 -65 -33
-108 29 5 -89 26 25 81 -99
-4 99 -39 -94 -33 49 -113 58
-86 -32 -122 24 86 -65 37 94
-69 -94 -15 28 30 6 -35 127

tfl.pseudo_qconst1 i1 [64, 128] scale=0.0017715025 zero_point=0
00000000: 3375 46c3 4d1f 43f8 d0dc 26cc 9b2c b827
00000010: 5745 443b 0f0c 58f3 01d0 e45f 1f5b 233d
00000020: f362 653b fab7 f1d5 d0e5 d1ee f3e2 def0
00000030: 12f2 d6ba f646 58e4 c0ce 5bca beba 0da2
00000040: bcee 461d ace6 09c6 b3c2 36ad ddff fb36
00000050: 36f5 1836 29b2 1fb4 b3d5 c211 03ba c017
00000060: f452 f5ee d3f7 5709 3027 291c 2238 f45c
00000070: cf69 1fda f13d f9df 50d4 e754 d36e 4fcd
00000080: 2d56 1b3e 1b2f 35d3 a6d3 f6f0 0415 a116
00000090: 9ed3 d43d 4835 c647 a45b 43bd ad51 daea
000000a0: 0a4a c425 6135 df14 b316 f6aa 0556 5c34
000000b0: beb7 1bc6 afce 3dd5 e24f 0e66 e847 bedf
000000c0: 22f2 dd53 5016 e525 e43a 4700 04dd 4de2
000000d0: 5f3c d559 0fec 0eaa f93f 142c f816 bba4
000000e0: 3abe d80b a8cd 584f 07d2 dc05 34d9 fa61
000000f0: afe3 4951 25a3 3312 21c6 f025 53fb 5dc0
0.09034663 0.2072658 0.124005176 -0.10806166 0.13640569 0.05491658 0.11869067 -0.01417202
-0.08503212 -0.063774094 0.0673171 -0.09211813 -0.17892176 0.07794611 -0.12754819 0.0690886
0.15412073 0.122233674 0.12046217 0.10451865 0.026572539 0.02125803 0.15589222 -0.023029532
0.0017715025 -0.08503212 -0.049602073 0.16829275 0.05491658 0.16120674 0.062002588 0.10806166
-0.023029532 0.17360725 0.17892176 0.10451865 -0.010629015 -0.12931968 -0.026572539 -0.07617461
-0.08503212 -0.04783057 -0.08326062 -0.031887047 -0.023029532 -0.053145077 -0.060231086 -0.02834404
0.031887047 -0.024801036 -0.07440311 -0.124005176 -0.017715026 0.124005176 0.15589222 -0.049602073
-0.11337616 -0.088575125 0.16120674 -0.09566114 -0.11691917 -0.124005176 0.023029532 -0.16652124
-0.12046217 -0.031887047 0.124005176 0.051373575 -0.14880621 -0.046059065 0.015943523 -0.10274715
-0.13640569 -0.10983316 0.09566114 -0.1470347 -0.062002588 -0.0017715025 -0.008857513 0.09566114
0.09566114 -0.019486528 0.04251606 0.09566114 0.072631605 -0.1381772 0.05491658 -0.1346342
-0.13640569 -0.07617461 -0.10983316 0.030115543 0.0053145075 -0.124005176 -0.11337616 0.040744558
-0.02125803 0.14526321 -0.019486528 -0.031887047 -0.079717614 -0.015943523 0.15412073 0.015943523
0.08503212 0.0690886 0.072631605 0.049602073 0.060231086 0.099204145 -0.02125803 0.16297823
-0.08680362 0.18600777 0.05491658 -0.0673171 -0.026572539 0.10806166 -0.012400518 -0.058459584
0.1417202 -0.07794611 -0.044287562 0.14880621 -0.079717614 0.19486529 0.1399487 -0.09034663
0.079717614 0.15234922 0.04783057 0.10983316 0.04783057 0.08326062 0.09388963 -0.079717614
-0.15943523 -0.079717614 -0.017715026 -0.02834404 0.00708601 0.037201554 -0.16829275 0.038973056
-0.17360725 -0.079717614 -0.07794611 0.10806166 0.12754819 0.09388963 -0.10274715 0.12577668
-0.16297823 0.16120674 0.11869067 -0.11869067 -0.1470347 0.1434917 -0.0673171 -0.038973056
0.017715026 0.13109119 -0.106290154 0.065545596 0.17183575 0.09388963 -0.058459584 0.03543005
-0.13640569 0.038973056 -0.017715026 -0.15234922 0.008857513 0.15234922 0.16297823 0.09211813
-0.11691917 -0.12931968 0.04783057 -0.10274715 -0.1434917 -0.088575125 0.10806166 -0.07617461
-0.053145077 0.1399487 0.024801036 0.18069325 -0.04251606 0.12577668 -0.11691917 -0.058459584
0.060231086 -0.024801036 -0.062002588 0.1470347 0.1417202 0.038973056 -0.04783057 0.065545596
-0.049602073 0.10274715 0.12577668 0.0 0.00708601 -0.062002588 0.13640569 -0.053145077
0.16829275 0.106290154 -0.07617461 0.15766373 0.026572539 -0.03543005 0.024801036 -0.15234922
-0.012400518 0.11160466 0.03543005 0.07794611 -0.01417202 0.038973056 -0.122233674 -0.16297823
0.10274715 -0.11691917 -0.0708601 0.019486528 -0.15589222 -0.09034663 0.15589222 0.1399487
0.012400518 -0.081489116 -0.063774094 0.008857513 0.09211813 -0.0690886 -0.010629015 0.17183575
-0.1434917 -0.051373575 0.12931968 0.1434917 0.065545596 -0.16474974 0.09034663 0.031887047
0.058459584 -0.10274715 -0.02834404 0.065545596 0.1470347 -0.008857513 0.16474974 -0.11337616

arith.constant27 f4 [256]
00000000: acf5 8bbc 9b10 bbbb 9dde 81bc d0e5 943c
00000010: 06bc 853c 7bca a33c ebb0 2f3c f226 d93a
00000020: 5c4f 9fba fbb8 933c c5f8 89bc 3d66 58bc
00000030: dabb 30bc 8609 b4bc afcd d8bb d908 cbbc
00000040: 2c47 bcba c40f e2bc 7c9f 94bc 6c25 44bc
00000050: 53ee 2fbc 0e23 78bc d96f a9ba fc3f 793b
00000060: e7ca 1fba 9659 dcba 5846 f2bb a39e fabb
00000070: 2463 a7bb 4417 273d c83d 783a 272f b8bb
00000080: 177d 68bc dc2c 9c3c 96aa 563b 1f99 86bb
00000090: ca8c 7cb9 d107 19bc 6c0c a2bb abda bfbc
000000a0: b046 7fbc 1ca1 acbb ceb6 20bc f954 c03a
000000b0: f060 b23b 3be7 f13b 41d7 88bb f738 20bc
000000c0: 9658 003c 80dd a3bb d934 23ba f889 61bc
000000d0: 51d9 183c e8e3 0d3c 8fb2 c1bb 6094 bd3b
000000e0: 3316 14bc 842e cbbb 1384 37bb e4ef 87bc
000000f0: f144 0cbc 4ad0 553a 273f 7fbc 2658 8c3c
00000100: 301e 7b3f 3d32 7f3f 0476 7b3f 401b 823f
00000110: 4e22 823f 3b34 823f 565e 813f df7c 803f
00000120: c017 803f b13c 823f 1a2b 7d3f a7c5 7b3f
00000130: 26f0 7d3f 03d3 7a3f c253 7e3f ef75 7a3f
00000140: af2c 7f3f 9a71 793f 7b7c 7a3f 76d7 7e3f
00000150: 4f1a 7d3f 4b33 7d3f 1e49 7e3f af57 803f
00000160: d16c 7f3f 5cec 7e3f 1afb 7c3f ac4b 7e3f
00000170: c73e 7f3f f9a6 853f a7b4 7e3f 9669 7f3f
00000180: 0cb6 7c3f 7777 823f 932b 803f b21b 7e3f
00000190: 434b 803f 03c5 7e3f 2428 7f3f 8f4e 7a3f
000001a0: b3c4 7b3f c30e 7f3f 3171 7d3f 4ca9 7f3f
000001b0: 909b 813f 6a68 803f 97b9 7e3f 211d 7d3f
000001c0: 5f85 813f b8e3 7e3f 2924 803f 0d2f 7c3f
000001d0: 4340 813f 4a2f 813f 6e58 7d3f 70b7 803f
000001e0: 7712 7e3f 91dd 7e3f dcf5 7f3f 256f 7b3f
000001f0: fe74 7c3f 298c 813f bb96 7b3f c07d 823f
00000200: adfe 4a3a 7d1e a53a 2164 3a3c 74ce 573a
00000210: 097a 913b 7f42 77bc 157e 90bc e2a7 6b3c
00000220: 02c4 aa3b b471 9c3c e2f0 7c3c de8f c93a
00000230: a647 2abc 0b06 a2bb b1a4 303c cca2 90ba
00000240: 4c26 5c38 6b4e d7ba e9e0 31bc 5c44 313b
00000250: fa58 b33b ba34 213c 0ca5 a93b 671a 66bb
00000260: 4887 76bc 488a e0bb 4672 17ba f088 d73b
00000270: d4ed 78bc dca5 31bc ef3e 343c 0ce7 333b
00000280: b2fd 28bb ef5a 3c3c 48cc 2fbc 3572 fcbb
00000290: d1c7 903b c146 1abc 1da5 083c 50f2 bb3b
000002a0: 3ed1 fb3b 4bee 383c 3508 11bb b5a4 acbc
000002b0: b1db a93a 8c3f dfbb 39f8 bbbb f1bf eb3a
000002c0: 78f6 0d3c 610a 23bc 0745 943b c2e8 443c
000002d0: e584 dabb 3cd3 00bc 066e 703c 28c1 49bc
000002e0: ea3a 5b3c cda1 79bb 5aaa 19bc 7a8a 1fbc
000002f0: e982 c93b 0f38 29bb 47d2 95ba cb43 2a3c
00000300: 3b0e 86bc 3a21 b3bb 32f3 a0bc d35e 783c
00000310: c9a3 763c b16b 133b f2b1 bf3b 76f8 1a3b
00000320: 9d16 93bb 875f 2e3c d26e 99bc bfff 72bc
00000330: 0532 0fbc f067 abbc a29b 82bb 7ae5 c5bc
00000340: 3cfb a7b9 9908 b0bc 50d7 9abc 1b19 57bc
00000350: 0665 26bc 8f45 82bc 8c95 a239 148f b6b9
00000360: afae 95ba e3cc 8d3b 618d dcbb 03d5 5dbc
00000370: ce31 973a 4fb9 0e3c f52d debb 0409 c2bb
00000380: ef18 69bc cb29 6a3c bab3 213c ea18 98bb
00000390: 0373 70bb 56ae 3abc f6f7 27bc b722 c0bc
000003a0: b3c5 81bc 9609 5dbc df9d 79bc b6a3 343b
000003b0: 076b 953b 42fa da3b 4926 ebbb 0a2c 4cbc
000003c0: 897c 183c 000b 13bc fe6a 22b9 1770 64bc
000003d0: 8f25 393b 58d5 af39 d4a7 e7bb 45ce 6c3a
000003e0: e5ad 02bc ceda eebb bac2 373a cde7 71bc
000003f0: aa1e 23bc 4fb3 893a b1b0 72bc 586a 583c
-0.017084919 -0.0057087666 -0.01585322 0.01817599 0.016325008 0.019994011 0.010723333 0.0016567393
-0.0012154388 0.018032541 -0.016842255 -0.013207969 -0.010786975 -0.021977197 -0.0066163163 -0.024784492
-0.0014364473 -0.027595408 -0.018142454 -0.011971813 -0.010737973 -0.015145076 -0.001292701 0.0038032522
-0.00060956035 -0.0016811367 -0.0073936395 -0.0076483055 -0.005108254 0.040793672 0.00094696553 -0.0056208554
-0.01418998 0.01906436 0.0032755486 -0.004107609 -0.00024085041 -0.0093402425 -0.0049453285 -0.023419699
-0.015580818 -0.005268229 -0.009809209 0.0014673761 0.0054436848 0.007382301 -0.004176051 -0.0097792065
0.0078336205 -0.00500077 -0.00062258315 -0.0137658045 0.009329156 0.008660294 -0.0059111784 0.00578551
-0.009038496 -0.0062006135 -0.0028002306 -0.016593881 -0.008561359 0.00081563427 -0.015579022 0.017131876
0.9809294 0.9968603 0.9822695 1.0164566 1.0166719 1.017219 1.0106914 1.0038108
1.0007248 1.0174772 0.9889389 0.9834847 0.9919456 0.9797823 0.99346554 0.978362
0.99677557 0.9743897 0.9784619 0.9954752 0.9886827 0.9890639 0.9933032 1.0026759
0.99775416 0.99579406 0.9882065 0.99334216 0.99705166 1.0441581 0.99494404 0.99770486
0.9871528 1.0192708 1.0013298 0.9926101 1.0022968 0.99519366 0.99670625 0.9777612
0.98347014 0.996319 0.9900084 0.998677 1.0125599 1.0031865 0.9950194 0.9887257
1.0118827 0.9956622 1.0011035 0.98509294 1.0097736 1.0092556 0.9896306 1.0055981
0.99246925 0.99556834 0.99984527 0.9821647 0.98616016 1.0120898 0.9827687 1.0194626
0.0007743638 0.0012597587 0.011376412 0.0008232363 0.0044395966 -0.0150915375 -0.017638246 0.014383288
0.0052113542 0.019097187 0.01543829 0.0015377959 -0.010393059 -0.004944568 0.010781453 -0.0011034845
5.2487754e-05 -0.0016426569 -0.010856845 0.0027048802 0.0054732533 0.009839231 0.005177146 -0.0035110952
-0.015046902 -0.006852422 -0.0005777221 0.0065776035 -0.015193421 -0.010842767 0.011001333 0.0027450947
-0.002578598 0.01149629 -0.010729857 -0.007704044 0.004418351 -0.009416283 0.008340147 0.005735673
0.0076848557 0.011287282 -0.0022130136 -0.021074632 0.001295915 -0.0068129953 -0.0057363776 0.001798628
0.00866472 -0.009951205 0.0045248303 0.012018384 -0.0066686743 -0.007862862 0.014674669 -0.012314118
0.013380745 -0.0038090826 -0.009378994 -0.009737605 0.006149639 -0.0025820767 -0.0011430465 0.01039214
-0.016364207 -0.0054666074 -0.019647215 0.015159327 0.015053698 0.002249461 0.00585007 0.002364663
-0.0044887797 0.010642893 -0.018729601 -0.014831482 -0.008739953 -0.020923585 -0.003985838 -0.024157275
-0.00032039906 -0.021488475 -0.018901497 -0.013128544 -0.010155922 -0.015902309 0.0003101047 -0.00034820347
-0.0011419858 0.004327403 -0.006730721 -0.0135395555 0.0011535229 0.008711173 -0.006780381 -0.005921485
-0.014227136 0.014292191 0.00986951 -0.004641642 -0.0036689646 -0.011394104 -0.01025199 -0.023454053
-0.01584134 -0.013491055 -0.015235393 0.00275634 0.004559878 0.006682665 -0.007176195 -0.012461672
0.009307035 -0.008974791 -0.00015489382 -0.01394274 0.0028251146 0.00033537555 -0.007069567 0.0009033422
-0.00797603 -0.007289267 0.00070099125 -0.014764738 -0.009956041 0.0010505709 -0.014812634 0.013208948

tfl.pseudo_qconst2 i1 [256, 32] scale=0.0017690778 zero_point=0
00000000: 07c4 2fdc 0849 adf6 0a4d 1045 b9aa 0f1f
00000010: 11c7 cbb1 bfd8 4614 1715 0f55 b7ab 2631
00000020: f506 4db5 34ee 24ff 15fb 3339 0506 afef
00000030: e023 2c0a 2dad 3b4b 5447 ae34 37ee 3bd7
00000040: 4fc5 bfb0 3418 b23a fdbc d412 3d41 d937
00000050: 2d45 f501 f51a de03 4000 1020 3936 09de
00000060: 67d5 e04d cff7 2d20 40be d923 e735 b1f7
00000070: 1ce3 0ab7 f8b2 afba 0744 1765 edc2 bee2
00000080: 3dd8 ddd0 f8d4 f6f2 3bae e9dc e81d 20ea
00000090: a7f9 0a36 eb10 0a4d fcc2 0943 201c b8e5
000000a0: 4527 b61b 38bd 3747 58cd dc14 9019 cbd7
000000b0: c431 2531 4c1f ccc8 f047 f5e8 c409 d8e5
000000c0: c74b ecb2 02f2 bece 00be ff21 8438 323f
000000d0: 3a1e c72c 3712 0a16 151e ffbc 3222 17e1
000000e0: 35f9 53d9 a805 16ae 2c3a 10cc 480e d40c
000000f0: f0eb 4a3e f029 e5f9 d710 17dc a5f8 b7c3
0.012383545 -0.106144674 0.08314666 -0.0636868 0.014152623 0.12914269 -0.14683346 -0.017690778
0.017690778 0.136219 0.028305246 0.12206637 -0.12560453 -0.15214069 0.026536169 0.054841414
0.030074323 -0.10083744 -0.09376112 -0.13975716 -0.11499006 -0.07076311 0.12383545 0.035381556
0.04068879 0.037150636 0.026536169 0.15037161 -0.12914269 -0.15037161 0.06722496 0.086684816
-0.019459857 0.010614467 0.136219 -0.13268083 0.09199205 -0.0318434 0.0636868 -0.0017690778
0.037150636 -0.008845389 0.09022297 0.10083744 0.008845389 0.010614467 -0.1432953 -0.030074323
-0.05661049 0.061917726 0.07783943 0.017690778 0.0796085 -0.14683346 0.10437559 0.13268083
0.14860255 0.12560453 -0.14506438 0.09199205 0.097299285 -0.0318434 0.10437559 -0.07253219
0.13975716 -0.10437559 -0.11499006 -0.14152622 0.09199205 0.042457867 -0.13798808 0.10260651
-0.0053072334 -0.12029729 -0.07783943 0.0318434 0.10791375 0.11499006 -0.06899404 0.097299285
0.0796085 0.12206637 -0.019459857 0.0017690778 -0.019459857 0.045996025 -0.060148645 0.0053072334
0.11322098 0.0 0.028305246 0.05661049 0.10083744 0.095530204 0.0159217 -0.060148645
0.18221502 -0.076070346 -0.05661049 0.136219 -0.086684816 -0.0159217 0.0796085 0.05661049
0.11322098 -0.11675914 -0.06899404 0.061917726 -0.044226944 0.09376112 -0.13975716 -0.0159217
0.04953418 -0.051303256 0.017690778 -0.12914269 -0.014152623 -0.13798808 -0.1432953 -0.12383545
0.012383545 0.12029729 0.04068879 0.17867686 -0.03361248 -0.10968283 -0.11675914 -0.053072337
0.10791375 -0.07076311 -0.061917726 -0.084915735 -0.014152623 -0.07783943 -0.017690778 -0.02476709
0.10437559 -0.14506438 -0.04068879 -0.0636868 -0.042457867 0.051303256 0.05661049 -0.038919713
-0.15744793 -0.012383545 0.017690778 0.095530204 -0.037150636 0.028305246 0.017690778 0.136219
-0.0070763114 -0.10968283 0.0159217 0.11852822 0.05661049 0.04953418 -0.1273736 -0.047765102
0.12206637 0.06899404 -0.13091177 0.047765102 0.09906836 -0.11852822 0.097299285 0.12560453
0.15567885 -0.09022297 -0.0636868 0.035381556 -0.19813672 0.044226944 -0.09376112 -0.07253219
-0.106144674 0.086684816 0.065455884 0.086684816 0.13444991 0.054841414 -0.09199205 -0.09906836
-0.028305246 0.12560453 -0.019459857 -0.042457867 -0.106144674 0.0159217 -0.07076311 -0.047765102
-0.10083744 0.13268083 -0.035381556 -0.13798808 0.0035381557 -0.02476709 -0.11675914 -0.08845389
0.0 -0.11675914 -0.0017690778 0.05837957 -0.21936566 0.09906836 0.08845389 0.1114519
0.10260651 0.053072337 -0.10083744 0.07783943 0.097299285 0.0318434 0.017690778 0.038919713
0.037150636 0.053072337 -0.0017690778 -0.12029729 0.08845389 0.060148645 0.04068879 -0.054841414
0.09376112 -0.012383545 0.14683346 -0.06899404 -0.15567885 0.008845389 0.038919713 -0.14506438
0.07783943 0.10260651 0.028305246 -0.09199205 0.1273736 0.02476709 -0.07783943 0.021228934
-0.028305246 -0.037150636 0.13091177 0.10968283 -0.028305246 0.07253219 -0.047765102 -0.012383545
-0.07253219 0.028305246 0.04068879 -0.0636868 -0.16098608 -0.014152623 -0.12914269 -0.10791375

tfl.pseudo_qconst3 i1 [256, 64] scale=0.0021339601 zero_point=0
00000000: 26f6 ec10 fdfd fee9 2e35 e11d dcd2 05dc
00000010: faeb fd05 0f0e 0a2c 14ec fd20 e6c0 d1df
00000020: 2aff 2922 f705 0efb f8dc f3ee 0e20 053d
00000030: ff3f f60d d6d6 ff07 d439 25ec 1b06 1218
00000040: 22d4 daf6 131b 1f37 10f5 25d3 e629 0900
00000050: 35ec f114 d9f7 fbe4 1a2c f6f4 dbf0 db0f
00000060: 3cfd f607 d806 39d3 e8df ac0f d5fa f521
00000070: 0012 2bd9 f003 c8fc 12e4 f412 f21d 1fd6
00000080: 211b e1cf de39 481e 0ee7 d610 07f3 05f3
00000090: e9f4 fa27 f7f4 f7c1 25bc ef18 fd3a f2f6
000000a0: 1003 fd10 abe0 0139 f5fb 1403 2dbf 220f
000000b0: e5f7 e2ef f30c 121d 03e5 1e08 db0a aaf2
000000c0: f0f9 fbf4 2018 edfd eee1 16f6 2307 fb02
000000d0: 24fd 36ea d4f3 e42d e5ff 100f 05f1 e7bf
000000e0: 1410 f5e0 cc06 03d5 1b23 00ca e9e4 d003
000000f0: 1cbe e80c 03ee ce39 3913 051d fd0f 1802
0.08109049 -0.0213396 -0.0426792 0.034143362 -0.0064018806 -0.0064018806 -0.0042679203 -0.049081083
0.09816217 0.11309989 -0.06615277 0.061884843 -0.076822564 -0.09816217 0.0106698 -0.076822564
-0.012803761 -0.044813164 -0.0064018806 0.0106698 0.0320094 0.029875442 0.0213396 0.09389424
0.0426792 -0.0426792 -0.0064018806 0.068286724 -0.055482965 -0.13657345 -0.100296125 -0.07042068
0.08962633 -0.0021339601 0.08749237 0.07255465 -0.019205641 0.0106698 0.029875442 -0.0106698
-0.017071681 -0.076822564 -0.027741482 -0.038411282 0.029875442 0.068286724 0.0106698 0.13017157
-0.0021339601 0.13443948 -0.0213396 0.027741482 -0.08962633 -0.08962633 -0.0021339601 0.014937721
-0.09389424 0.12163573 0.07895652 -0.0426792 0.057616923 0.012803761 0.038411282 0.051215045
0.07255465 -0.09389424 -0.08109049 -0.0213396 0.040545244 0.057616923 0.06615277 0.117367804
0.034143362 -0.02347356 0.07895652 -0.09602821 -0.055482965 0.08749237 0.019205641 0.0
0.11309989 -0.0426792 -0.0320094 0.0426792 -0.083224446 -0.019205641 -0.0106698 -0.059750885
0.055482965 0.09389424 -0.0213396 -0.025607523 -0.07895652 -0.034143362 -0.07895652 0.0320094
0.1280376 -0.0064018806 -0.0213396 0.014937721 -0.0853584 0.012803761 0.12163573 -0.09602821
-0.051215045 -0.07042068 -0.17925265 0.0320094 -0.091760285 -0.012803761 -0.02347356 0.07042068
0.0 0.038411282 0.091760285 -0.083224446 -0.034143362 0.0064018806 -0.11950177 -0.008535841
0.038411282 -0.059750885 -0.025607523 0.038411282 -0.029875442 0.061884843 0.06615277 -0.08962633
0.07042068 0.057616923 -0.06615277 -0.10456405 -0.07255465 0.12163573 0.15364513 0.0640188
0.029875442 -0.053349003 -0.08962633 0.034143362 0.014937721 -0.027741482 0.0106698 -0.027741482
-0.049081083 -0.025607523 -0.012803761 0.083224446 -0.019205641 -0.025607523 -0.019205641 -0.13443948
0.07895652 -0.1451093 -0.036277324 0.051215045 -0.0064018806 0.123769686 -0.029875442 -0.0213396
0.034143362 0.0064018806 -0.0064018806 0.034143362 -0.1813866 -0.068286724 0.0021339601 0.12163573
-0.02347356 -0.0106698 0.0426792 0.0064018806 0.09602821 -0.13870741 0.07255465 0.0320094
-0.057616923 -0.019205641 -0.0640188 -0.036277324 -0.027741482 0.025607523 0.038411282 0.061884843
0.0064018806 -0.057616923 0.0640188 0.017071681 -0.07895652 0.0213396 -0.18352057 -0.029875442
-0.034143362 -0.014937721 -0.0106698 -0.025607523 0.068286724 0.051215045 -0.040545244 -0.0064018806
-0.038411282 -0.06615277 0.04694712 -0.0213396 0.074688606 0.014937721 -0.0106698 0.0042679203
0.076822564 -0.0064018806 0.115233846 -0.04694712 -0.09389424 -0.027741482 -0.059750885 0.09602821
-0.057616923 -0.0021339601 0.034143362 0.0320094 0.0106698 -0.0320094 -0.053349003 -0.13870741
0.0426792 0.034143362 -0.02347356 -0.068286724 -0.11096593 0.012803761 0.0064018806 -0.091760285
0.057616923 0.074688606 0.0 -0.115233846 -0.049081083 -0.059750885 -0.10243009 0.0064018806
0.059750885 -0.14084136 -0.051215045 0.025607523 0.0064018806 -0.038411282 -0.10669801 0.12163573
0.12163573 0.040545244 0.0106698 0.061884843 -0.0064018806 0.0320094 0.051215045 0.0042679203

arith.constant31 f4 [256]
00000000: b6b1 95bb bf8f 243c 06e7 073c 40e3 3ebc
00000010: ae09 1fbc da37 c83b 0573 8bbc ed8c 263c
00000020: 04ed fdbb bca3 59b9 8d1c 1abb 7e15 413b
00000030: 18d3 3fbc e5ea e6bb 8ec9 e0bb 18ad 77bc
00000040: 57be 293b 4e20 02bc 4a75 5abb 2363 813c
00000050: 498f 743c 1e9c b4bb e5be ff3b 3e93 55bc
00000060: 296f b83c 9d1e 4f3c 36f8 24bc eab5 3e3b
00000070: 4b52 023c 7699 85bc 1d8d 2e3d 7c72 513c
00000080: e007 3fb9 d675 033c 4d36 b13c 260f 3dbb
00000090: 22a7 533c ff85 8bbb d344 a33b d19a 81bc
000000a0: 9a72 7d3b 329f aebb fe8c b6bc 7acb 583c
000000b0: dd91 2d3a 229b 4dbc 0437 8a3c 682b 933b
000000c0: 115b 8cbc 8748 803c 10f2 ea39 1550 2dbb
000000d0: 496f 2a3a 4f3c 743c 3750 453c 08c4 5cbb
000000e0: 73d6 b13a 6505 a43c cdbc db3a ae18 47bc
000000f0: cf91 823c fdc1 45bc 758b 85bb 19b6 e0ba
00000100: c709 803f 955c 813f 98f8 803f ffe6 7b3f
00000110: 42fd 803f b538 813f 47c5 7f3f 4f89 803f
00000120: 4e74 7e3f b61c 833f 937e 7d3f 4710 803f
00000130: 1d57 7c3f ee36 7f3f d0de 7d3f cbde 7c3f
00000140: 8c44 7f3f 0d3b 7e3f 4274 7e3f d53b 813f
00000150: 27cf 813f 7f00 7d3f d5ef 803f 7856 803f
00000160: facc 813f 4146 813f 6bb5 7d3f 34d0 803f
00000170: b8cb 7e3f 8d78 7d3f 95d5 843f 65f2 803f
00000180: 6dc6 7f3f 5d77 803f cbf9 813f 259d 7e3f
00000190: 2910 803f 3768 7d3f efbe 7f3f b3f0 7b3f
000001a0: ddb5 7e3f 435b 803f 7f07 7d3f 8537 813f
000001b0: 226a 7f3f 30eb 7c3f 6466 813f 5c58 7f3f
000001c0: ef4e 7f3f 4ec2 803f 66a1 7d3f b69d 803f
000001d0: 5415 7f3f f060 813f 1de6 813f c630 7d3f
000001e0: 085e 803f f704 813f c6a2 7f3f bd28 7d3f
000001f0: 53e7 7f3f 6d61 803f 2748 7f3f fd8f 7e3f
00000200: c98b 7a3b 1cb4 833c 7a1e 1d3c 020c f43b
00000210: f506 9bbc f099 12b8 a1c6 d4bb cc12 eb3a
00000220: f41a 8e39 493d 76bb 8ff8 c2bc a024 aa3c
00000230: b36f 1f3c 1e5f e139 79ce 60bc c54f 16bc
00000240: cdef 19bb ea11 7abb fe08 8ebb c000 3dba
00000250: 2ee3 d93b b328 ea3b 032a d53b a0fc bb3b
00000260: 20df 2dbc 74f3 093c 69a5 21bc f5cf 65ba
00000270: 432e 09ba ede6 533b 2549 e539 ffea c03b
00000280: c970 1e3b 2128 1a3b f633 453c ca59 1a3b
00000290: 7b3f c1bb 4194 953b d7ac 5cbb 95e8 563a
000002a0: 0a24 1cba ae6c 21bc 9f09 02ba ed17 2abc
000002b0: 9282 903b 892d ddbb 2b29 1d3c c047 f6bb
000002c0: c06f 89bb b4d7 1ebc 42ce 98ba 2f5e d1bb
000002d0: ccc1 073b 9e54 c2ba 80b6 473c 4b0a 253c
000002e0: 57b9 863b dac1 4dbc 7752 2ebc 856d 3fbb
000002f0: c173 143c 9acd 443b c243 84bb 6238 ee3a
00000300: e185 c8bb bbf9 193c e387 613b 374b 33bc
00000310: c705 75bb 0e55 2bba a9a7 d1ba 6275 0b3c
00000320: 0b93 e6bb 3a3a 923b daf5 d5bb 499b cfba
00000330: c2d5 17bc 2e3c 5abb af63 b5bb 2c08 60bc
00000340: 00fb ebbb 22b5 2cbc c072 79b9 345d ad3c
00000350: aaa6 a13c a0bf acbb e356 ce3b 119c 9fbb
00000360: abc6 a13c bc22 523c b53f ecbb 0b8b 823b
00000370: d659 a33b 6adb cdbb 0a6c db3c d114 bf39
00000380: 8fb8 ad3b 1ac4 a23c 6893 a23c 9638 3ebb
00000390: e6a8 313c 29bd f5bb 8296 133a c6ea 2cbb
000003a0: 4047 8f3b d3d1 d7bb bc43 89bc 6dd2 273c
000003b0: a018 823b 80c1 5ebc c851 483c e991 753b
000003c0: 7fc1 8e3b db62 823b 1f1a 123b 2362 e9ba
000003d0: 1027 55bb be62 593c 8603 f6bb 38dd e7bb
000003e0: b0ab b83b 9060 f2bb ccf6 383b d71b 4cbc
000003f0: 035d 123c 4dcd 81bb 8c9c eebb 03c1 16bb
-0.004568304 0.010044037 0.008294826 -0.01165086 -0.009706898 0.0061101737 -0.017022619 0.010165435
-0.0077492017 -0.00020755728 -0.0023515553 0.0029462273 -0.0117080435 -0.0070470446 -0.0068599647 -0.015116952
0.0025900805 -0.007942272 -0.003333407 0.015794342 0.01492674 -0.0055117747 0.007804739 -0.013035594
0.022513943 0.012641576 -0.010068944 0.0029100128 0.0079541905 -0.016308527 0.042615045 0.012783643
-0.00018218113 0.0080237 0.021632338 -0.002884814 0.012918266 -0.004257917 0.0049825697 -0.015820893
0.0038673044 -0.005329036 -0.022284027 0.013232106 0.00066211616 -0.012549194 0.016871937 0.0044912584
-0.017133268 0.015659584 0.0004481231 -0.0026445438 0.0006501568 0.014906957 0.0120430505 -0.003368618
0.0013567939 0.020022104 0.0016764641 -0.01215188 0.015938668 -0.012070176 -0.0040754625 -0.0017144113
1.0002984 1.0106379 1.0075865 0.9839935 1.0077288 1.0095431 0.99910396 1.0041903
0.99396217 1.0243137 0.9902126 1.0004967 0.98570424 0.9969319 0.9916811 0.98777455
0.9971397 0.99308854 0.99396145 1.0096384 1.0141343 0.9882888 1.0073191 1.0026388
1.0140679 1.0099565 0.99104947 1.0063539 0.995296 0.9901207 1.037768 1.0073973
0.9991215 1.0036427 1.0154356 0.99458534 1.0004932 0.98987144 0.99900717 0.9841415
0.9949625 1.0027851 0.98839563 1.0095068 0.9977132 0.9879637 1.0109372 0.997442
0.9972982 1.0059297 0.990744 1.004813 0.9964192 1.0107708 1.014835 0.9890255
1.0028696 1.007964 0.9985775 0.98890287 0.9996235 1.0029732 0.9971947 0.9943846
0.003823029 0.016077094 0.009589786 0.0074477205 -0.018924216 -3.4952478e-05 -0.006493405 0.0017934679
0.00027104432 -0.003757315 -0.023800163 0.020769417 0.009731221 0.00042986212 -0.013721102 -0.009174292
-0.002348888 -0.003815765 -0.004334568 -0.00072098896 0.0066493964 0.007145965 0.0065052523 0.0057369024
-0.010612279 0.00841986 -0.009866097 -0.0008766645 -0.0005233029 0.0032333687 0.0004373278 0.0058873887
0.0024176112 0.0023522454 0.012036314 0.0023552054 -0.00589746 0.0045647924 -0.0033672357 0.00081981096
-0.0005956298 -0.009852571 -0.000496054 -0.010381681 0.0044100964 -0.006749813 0.009592335 -0.0075158775
-0.00419423 -0.009694982 -0.0011658149 -0.0063894014 0.0020714877 -0.0014826243 0.0121895075 0.010073255
0.0041114497 -0.012558425 -0.010639778 -0.0029209566 0.009060801 0.0030029775 -0.0040363977 0.0018174762
-0.0061194752 0.009397919 0.003441327 -0.010943226 -0.0037387477 -0.00065358065 -0.0015995401 0.008511873
-0.007036572 0.0044625076 -0.006529552 -0.0015839125 -0.009267272 -0.003330003 -0.005535565 -0.013673823
-0.0072015524 -0.010541232 -0.00023789238 0.021162607 0.019732792 -0.005271867 0.006296979 -0.0048708995
0.019748053 0.012825664 -0.007209743 0.0039838604 0.0049850745 -0.0062822597 0.026784915 0.00036445868
0.005301542 0.0198689 0.01984568 -0.0029025427 0.010843491 -0.0074993563 0.00056300324 -0.0026385053
0.0043725073 -0.0065862923 -0.016755931 0.0102430405 0.0039702207 -0.013595939 0.012226529 0.0037471002
0.0043565626 0.0039790696 0.0022293401 -0.0017805736 -0.0032524504 0.013268171 -0.0075077442 -0.007075932
0.005635701 -0.007396765 0.0028223274 -0.012457809 0.0089333085 -0.0039612413 -0.0072818454 -0.0023003228
